program(1.0)
[buildInfo = dict<tensor<string, []>, tensor<string, []>>({{"coremlc-component-MIL", "5.33.5"}, {"coremlc-version", "1877.40.3"}})]
{
    func main<ios17>(tensor<fp16, [1, 128, 1, 3000]> melspectrogram_features) {
            tensor<int32, [2]> var_90 = const()[name = tensor<string, []>("op_90"), val = tensor<int32, [2]>([1, 1])];
            tensor<int32, [2]> var_96 = const()[name = tensor<string, []>("op_96"), val = tensor<int32, [2]>([1, 1])];
            tensor<int32, []> var_101 = const()[name = tensor<string, []>("op_101"), val = tensor<int32, []>(1)];
            tensor<string, []> var_106_pad_type_0 = const()[name = tensor<string, []>("op_106_pad_type_0"), val = tensor<string, []>("custom")];
            tensor<int32, [4]> var_106_pad_0 = const()[name = tensor<string, []>("op_106_pad_0"), val = tensor<int32, [4]>([0, 0, 1, 1])];
            tensor<fp16, [1280, 128, 1, 3]> var_81_to_fp16 = const()[name = tensor<string, []>("op_81_to_fp16"), val = tensor<fp16, [1280, 128, 1, 3]>(BLOBFILE(path = tensor<string, []>("@model_path/weights/weight.bin"), offset = tensor<uint64, []>(64)))];
            tensor<fp16, [1280]> var_87_to_fp16 = const()[name = tensor<string, []>("op_87_to_fp16"), val = tensor<fp16, [1280]>(BLOBFILE(path = tensor<string, []>("@model_path/weights/weight.bin"), offset = tensor<uint64, []>(983168)))];
            tensor<fp16, [1, 1280, 1, 3000]> var_106_cast_fp16 = conv(bias = var_87_to_fp16, dilations = var_96, groups = var_101, pad = var_106_pad_0, pad_type = var_106_pad_type_0, strides = var_90, weight = var_81_to_fp16, x = melspectrogram_features)[name = tensor<string, []>("op_106_cast_fp16")];
            tensor<string, []> hidden_states_1_mode_0 = const()[name = tensor<string, []>("hidden_states_1_mode_0"), val = tensor<string, []>("EXACT")];
            tensor<fp16, [1, 1280, 1, 3000]> hidden_states_1_cast_fp16 = gelu(mode = hidden_states_1_mode_0, x = var_106_cast_fp16)[name = tensor<string, []>("hidden_states_1_cast_fp16")];
            tensor<int32, [2]> var_130 = const()[name = tensor<string, []>("op_130"), val = tensor<int32, [2]>([2, 2])];
            tensor<int32, [2]> var_136 = const()[name = tensor<string, []>("op_136"), val = tensor<int32, [2]>([1, 1])];
            tensor<int32, []> var_141 = const()[name = tensor<string, []>("op_141"), val = tensor<int32, []>(1)];
            tensor<string, []> var_146_pad_type_0 = const()[name = tensor<string, []>("op_146_pad_type_0"), val = tensor<string, []>("custom")];
            tensor<int32, [4]> var_146_pad_0 = const()[name = tensor<string, []>("op_146_pad_0"), val = tensor<int32, [4]>([0, 0, 1, 1])];
            tensor<fp16, [1280, 1280, 1, 3]> var_121_to_fp16 = const()[name = tensor<string, []>("op_121_to_fp16"), val = tensor<fp16, [1280, 1280, 1, 3]>(BLOBFILE(path = tensor<string, []>("@model_path/weights/weight.bin"), offset = tensor<uint64, []>(985792)))];
            tensor<fp16, [1280]> var_127_to_fp16 = const()[name = tensor<string, []>("op_127_to_fp16"), val = tensor<fp16, [1280]>(BLOBFILE(path = tensor<string, []>("@model_path/weights/weight.bin"), offset = tensor<uint64, []>(10816256)))];
            tensor<fp16, [1, 1280, 1, 1500]> var_146_cast_fp16 = conv(bias = var_127_to_fp16, dilations = var_136, groups = var_141, pad = var_146_pad_0, pad_type = var_146_pad_type_0, strides = var_130, weight = var_121_to_fp16, x = hidden_states_1_cast_fp16)[name = tensor<string, []>("op_146_cast_fp16")];
            tensor<string, []> hidden_states_3_mode_0 = const()[name = tensor<string, []>("hidden_states_3_mode_0"), val = tensor<string, []>("EXACT")];
            tensor<fp16, [1, 1280, 1, 1500]> hidden_states_3_cast_fp16 = gelu(mode = hidden_states_3_mode_0, x = var_146_cast_fp16)[name = tensor<string, []>("hidden_states_3_cast_fp16")];
            tensor<fp16, [1, 1280, 1, 1500]> var_164_to_fp16 = const()[name = tensor<string, []>("op_164_to_fp16"), val = tensor<fp16, [1, 1280, 1, 1500]>(BLOBFILE(path = tensor<string, []>("@model_path/weights/weight.bin"), offset = tensor<uint64, []>(10818880)))];
            tensor<fp16, [1, 1280, 1, 1500]> inputs_1_cast_fp16 = add(x = hidden_states_3_cast_fp16, y = var_164_to_fp16)[name = tensor<string, []>("inputs_1_cast_fp16")];
            tensor<int32, []> var_178 = const()[name = tensor<string, []>("op_178"), val = tensor<int32, []>(3)];
            tensor<int32, []> var_180 = const()[name = tensor<string, []>("op_180"), val = tensor<int32, []>(1)];
            tensor<bool, []> var_181 = const()[name = tensor<string, []>("op_181"), val = tensor<bool, []>(true)];
            tensor<int32, [1]> var_191 = const()[name = tensor<string, []>("op_191"), val = tensor<int32, [1]>([1])];
            tensor<fp16, [1, 1, 1, 1500]> channels_mean_1_cast_fp16 = reduce_mean(axes = var_191, keep_dims = var_181, x = inputs_1_cast_fp16)[name = tensor<string, []>("channels_mean_1_cast_fp16")];
            tensor<fp16, [1, 1280, 1, 1500]> zero_mean_1_cast_fp16 = sub(x = inputs_1_cast_fp16, y = channels_mean_1_cast_fp16)[name = tensor<string, []>("zero_mean_1_cast_fp16")];
            tensor<fp16, [1, 1280, 1, 1500]> zero_mean_sq_1_cast_fp16 = mul(x = zero_mean_1_cast_fp16, y = zero_mean_1_cast_fp16)[name = tensor<string, []>("zero_mean_sq_1_cast_fp16")];
            tensor<int32, [1]> var_195 = const()[name = tensor<string, []>("op_195"), val = tensor<int32, [1]>([1])];
            tensor<fp16, [1, 1, 1, 1500]> var_196_cast_fp16 = reduce_mean(axes = var_195, keep_dims = var_181, x = zero_mean_sq_1_cast_fp16)[name = tensor<string, []>("op_196_cast_fp16")];
            tensor<fp16, []> var_197_to_fp16 = const()[name = tensor<string, []>("op_197_to_fp16"), val = tensor<fp16, []>(0x1.5p-17)];
            tensor<fp16, [1, 1, 1, 1500]> var_198_cast_fp16 = add(x = var_196_cast_fp16, y = var_197_to_fp16)[name = tensor<string, []>("op_198_cast_fp16")];
            tensor<fp32, []> denom_1_epsilon_0 = const()[name = tensor<string, []>("denom_1_epsilon_0"), val = tensor<fp32, []>(0x1.197998p-40)];
            tensor<fp16, [1, 1, 1, 1500]> denom_1_cast_fp16 = rsqrt(epsilon = denom_1_epsilon_0, x = var_198_cast_fp16)[name = tensor<string, []>("denom_1_cast_fp16")];
            tensor<fp16, [1, 1280, 1, 1500]> out_1_cast_fp16 = mul(x = zero_mean_1_cast_fp16, y = denom_1_cast_fp16)[name = tensor<string, []>("out_1_cast_fp16")];
            tensor<fp16, [1280]> obj_1_mean_0_to_fp16 = const()[name = tensor<string, []>("obj_1_mean_0_to_fp16"), val = tensor<fp16, [1280]>(BLOBFILE(path = tensor<string, []>("@model_path/weights/weight.bin"), offset = tensor<uint64, []>(14658944)))];
            tensor<fp16, [1280]> obj_1_variance_0_to_fp16 = const()[name = tensor<string, []>("obj_1_variance_0_to_fp16"), val = tensor<fp16, [1280]>(BLOBFILE(path = tensor<string, []>("@model_path/weights/weight.bin"), offset = tensor<uint64, []>(14661568)))];
            tensor<fp16, [1280]> obj_1_gamma_0_to_fp16 = const()[name = tensor<string, []>("obj_1_gamma_0_to_fp16"), val = tensor<fp16, [1280]>(BLOBFILE(path = tensor<string, []>("@model_path/weights/weight.bin"), offset = tensor<uint64, []>(14664192)))];
            tensor<fp16, [1280]> obj_1_beta_0_to_fp16 = const()[name = tensor<string, []>("obj_1_beta_0_to_fp16"), val = tensor<fp16, [1280]>(BLOBFILE(path = tensor<string, []>("@model_path/weights/weight.bin"), offset = tensor<uint64, []>(14666816)))];
            tensor<fp16, []> obj_1_epsilon_0_to_fp16 = const()[name = tensor<string, []>("obj_1_epsilon_0_to_fp16"), val = tensor<fp16, []>(0x1.5p-17)];
            tensor<fp16, [1, 1280, 1, 1500]> obj_1_cast_fp16 = batch_norm(beta = obj_1_beta_0_to_fp16, epsilon = obj_1_epsilon_0_to_fp16, gamma = obj_1_gamma_0_to_fp16, mean = obj_1_mean_0_to_fp16, variance = obj_1_variance_0_to_fp16, x = out_1_cast_fp16)[name = tensor<string, []>("obj_1_cast_fp16")];
            tensor<int32, [2]> var_216 = const()[name = tensor<string, []>("op_216"), val = tensor<int32, [2]>([1, 1])];
            tensor<int32, [2]> var_218 = const()[name = tensor<string, []>("op_218"), val = tensor<int32, [2]>([1, 1])];
            tensor<string, []> pretrained_out_1_pad_type_0 = const()[name = tensor<string, []>("pretrained_out_1_pad_type_0"), val = tensor<string, []>("custom")];
            tensor<int32, [4]> pretrained_out_1_pad_0 = const()[name = tensor<string, []>("pretrained_out_1_pad_0"), val = tensor<int32, [4]>([0, 0, 0, 0])];
            tensor<fp16, [1280, 1280, 1, 1]> layers_0_self_attn_q_proj_pretrained_weight_to_fp16_palettized = constexpr_lut_to_dense()[indices = tensor<uint8, [819200]>(BLOBFILE(path = tensor<string, []>("@model_path/weights/weight.bin"), offset = tensor<uint64, []>(14669440))), lut = tensor<fp16, [16]>(BLOBFILE(path = tensor<string, []>("@model_path/weights/weight.bin"), offset = tensor<uint64, []>(15488704))), name = tensor<string, []>("layers_0_self_attn_q_proj_pretrained_weight_to_fp16_palettized"), shape = tensor<uint32, [4]>([1280, 1280, 1, 1])];
            tensor<fp16, [1280]> layers_0_self_attn_q_proj_pretrained_bias_to_fp16 = const()[name = tensor<string, []>("layers_0_self_attn_q_proj_pretrained_bias_to_fp16"), val = tensor<fp16, [1280]>(BLOBFILE(path = tensor<string, []>("@model_path/weights/weight.bin"), offset = tensor<uint64, []>(15488832)))];
            tensor<fp16, [1, 1280, 1, 1500]> pretrained_out_1_cast_fp16 = conv(bias = layers_0_self_attn_q_proj_pretrained_bias_to_fp16, dilations = var_218, groups = var_180, pad = pretrained_out_1_pad_0, pad_type = pretrained_out_1_pad_type_0, strides = var_216, weight = layers_0_self_attn_q_proj_pretrained_weight_to_fp16_palettized, x = obj_1_cast_fp16)[name = tensor<string, []>("pretrained_out_1_cast_fp16")];
            tensor<int32, [2]> var_222 = const()[name = tensor<string, []>("op_222"), val = tensor<int32, [2]>([1, 1])];
            tensor<int32, [2]> var_224 = const()[name = tensor<string, []>("op_224"), val = tensor<int32, [2]>([1, 1])];
            tensor<string, []> input_1_pad_type_0 = const()[name = tensor<string, []>("input_1_pad_type_0"), val = tensor<string, []>("custom")];
            tensor<int32, [4]> input_1_pad_0 = const()[name = tensor<string, []>("input_1_pad_0"), val = tensor<int32, [4]>([0, 0, 0, 0])];
            tensor<fp16, [16, 1280, 1, 1]> layers_0_self_attn_q_proj_loraA_weight_to_fp16 = const()[name = tensor<string, []>("layers_0_self_attn_q_proj_loraA_weight_to_fp16"), val = tensor<fp16, [16, 1280, 1, 1]>(BLOBFILE(path = tensor<string, []>("@model_path/weights/weight.bin"), offset = tensor<uint64, []>(15491456)))];
            tensor<fp16, [1, 16, 1, 1500]> input_1_cast_fp16 = conv(dilations = var_224, groups = var_180, pad = input_1_pad_0, pad_type = input_1_pad_type_0, strides = var_222, weight = layers_0_self_attn_q_proj_loraA_weight_to_fp16, x = obj_1_cast_fp16)[name = tensor<string, []>("input_1_cast_fp16")];
            tensor<int32, [2]> var_228 = const()[name = tensor<string, []>("op_228"), val = tensor<int32, [2]>([1, 1])];
            tensor<int32, [2]> var_230 = const()[name = tensor<string, []>("op_230"), val = tensor<int32, [2]>([1, 1])];
            tensor<string, []> lora_out_1_pad_type_0 = const()[name = tensor<string, []>("lora_out_1_pad_type_0"), val = tensor<string, []>("custom")];
            tensor<int32, [4]> lora_out_1_pad_0 = const()[name = tensor<string, []>("lora_out_1_pad_0"), val = tensor<int32, [4]>([0, 0, 0, 0])];
            tensor<fp16, [1280, 16, 1, 1]> lora_out_3_weight_0_to_fp16 = const()[name = tensor<string, []>("lora_out_3_weight_0_to_fp16"), val = tensor<fp16, [1280, 16, 1, 1]>(BLOBFILE(path = tensor<string, []>("@model_path/weights/weight.bin"), offset = tensor<uint64, []>(15532480)))];
            tensor<fp16, [1, 1280, 1, 1500]> lora_out_3_cast_fp16 = conv(bias = obj_1_mean_0_to_fp16, dilations = var_230, groups = var_180, pad = lora_out_1_pad_0, pad_type = lora_out_1_pad_type_0, strides = var_228, weight = lora_out_3_weight_0_to_fp16, x = input_1_cast_fp16)[name = tensor<string, []>("lora_out_3_cast_fp16")];
            tensor<fp16, [1, 1280, 1, 1500]> query_1_cast_fp16 = add(x = pretrained_out_1_cast_fp16, y = lora_out_3_cast_fp16)[name = tensor<string, []>("query_1_cast_fp16")];
            tensor<int32, [2]> var_240 = const()[name = tensor<string, []>("op_240"), val = tensor<int32, [2]>([1, 1])];
            tensor<int32, [2]> var_242 = const()[name = tensor<string, []>("op_242"), val = tensor<int32, [2]>([1, 1])];
            tensor<string, []> pretrained_out_3_pad_type_0 = const()[name = tensor<string, []>("pretrained_out_3_pad_type_0"), val = tensor<string, []>("custom")];
            tensor<int32, [4]> pretrained_out_3_pad_0 = const()[name = tensor<string, []>("pretrained_out_3_pad_0"), val = tensor<int32, [4]>([0, 0, 0, 0])];
            tensor<fp16, [1280, 1280, 1, 1]> layers_0_self_attn_k_proj_pretrained_weight_to_fp16_palettized = constexpr_lut_to_dense()[indices = tensor<uint8, [819200]>(BLOBFILE(path = tensor<string, []>("@model_path/weights/weight.bin"), offset = tensor<uint64, []>(15573504))), lut = tensor<fp16, [16]>(BLOBFILE(path = tensor<string, []>("@model_path/weights/weight.bin"), offset = tensor<uint64, []>(16392768))), name = tensor<string, []>("layers_0_self_attn_k_proj_pretrained_weight_to_fp16_palettized"), shape = tensor<uint32, [4]>([1280, 1280, 1, 1])];
            tensor<fp16, [1, 1280, 1, 1500]> pretrained_out_3_cast_fp16 = conv(dilations = var_242, groups = var_180, pad = pretrained_out_3_pad_0, pad_type = pretrained_out_3_pad_type_0, strides = var_240, weight = layers_0_self_attn_k_proj_pretrained_weight_to_fp16_palettized, x = obj_1_cast_fp16)[name = tensor<string, []>("pretrained_out_3_cast_fp16")];
            tensor<int32, [2]> var_246 = const()[name = tensor<string, []>("op_246"), val = tensor<int32, [2]>([1, 1])];
            tensor<int32, [2]> var_248 = const()[name = tensor<string, []>("op_248"), val = tensor<int32, [2]>([1, 1])];
            tensor<string, []> input_3_pad_type_0 = const()[name = tensor<string, []>("input_3_pad_type_0"), val = tensor<string, []>("custom")];
            tensor<int32, [4]> input_3_pad_0 = const()[name = tensor<string, []>("input_3_pad_0"), val = tensor<int32, [4]>([0, 0, 0, 0])];
            tensor<fp16, [16, 1280, 1, 1]> layers_0_self_attn_k_proj_loraA_weight_to_fp16 = const()[name = tensor<string, []>("layers_0_self_attn_k_proj_loraA_weight_to_fp16"), val = tensor<fp16, [16, 1280, 1, 1]>(BLOBFILE(path = tensor<string, []>("@model_path/weights/weight.bin"), offset = tensor<uint64, []>(16392896)))];
            tensor<fp16, [1, 16, 1, 1500]> input_3_cast_fp16 = conv(dilations = var_248, groups = var_180, pad = input_3_pad_0, pad_type = input_3_pad_type_0, strides = var_246, weight = layers_0_self_attn_k_proj_loraA_weight_to_fp16, x = obj_1_cast_fp16)[name = tensor<string, []>("input_3_cast_fp16")];
            tensor<int32, [2]> var_252 = const()[name = tensor<string, []>("op_252"), val = tensor<int32, [2]>([1, 1])];
            tensor<int32, [2]> var_254 = const()[name = tensor<string, []>("op_254"), val = tensor<int32, [2]>([1, 1])];
            tensor<string, []> lora_out_5_pad_type_0 = const()[name = tensor<string, []>("lora_out_5_pad_type_0"), val = tensor<string, []>("custom")];
            tensor<int32, [4]> lora_out_5_pad_0 = const()[name = tensor<string, []>("lora_out_5_pad_0"), val = tensor<int32, [4]>([0, 0, 0, 0])];
            tensor<fp16, [1280, 16, 1, 1]> lora_out_7_weight_0_to_fp16 = const()[name = tensor<string, []>("lora_out_7_weight_0_to_fp16"), val = tensor<fp16, [1280, 16, 1, 1]>(BLOBFILE(path = tensor<string, []>("@model_path/weights/weight.bin"), offset = tensor<uint64, []>(16433920)))];
            tensor<fp16, [1, 1280, 1, 1500]> lora_out_7_cast_fp16 = conv(bias = obj_1_mean_0_to_fp16, dilations = var_254, groups = var_180, pad = lora_out_5_pad_0, pad_type = lora_out_5_pad_type_0, strides = var_252, weight = lora_out_7_weight_0_to_fp16, x = input_3_cast_fp16)[name = tensor<string, []>("lora_out_7_cast_fp16")];
            tensor<fp16, [1, 1280, 1, 1500]> key_1_cast_fp16 = add(x = pretrained_out_3_cast_fp16, y = lora_out_7_cast_fp16)[name = tensor<string, []>("key_1_cast_fp16")];
            tensor<int32, [2]> var_265 = const()[name = tensor<string, []>("op_265"), val = tensor<int32, [2]>([1, 1])];
            tensor<int32, [2]> var_267 = const()[name = tensor<string, []>("op_267"), val = tensor<int32, [2]>([1, 1])];
            tensor<string, []> pretrained_out_5_pad_type_0 = const()[name = tensor<string, []>("pretrained_out_5_pad_type_0"), val = tensor<string, []>("custom")];
            tensor<int32, [4]> pretrained_out_5_pad_0 = const()[name = tensor<string, []>("pretrained_out_5_pad_0"), val = tensor<int32, [4]>([0, 0, 0, 0])];
            tensor<fp16, [1280, 1280, 1, 1]> layers_0_self_attn_v_proj_pretrained_weight_to_fp16_palettized = constexpr_lut_to_dense()[indices = tensor<uint8, [819200]>(BLOBFILE(path = tensor<string, []>("@model_path/weights/weight.bin"), offset = tensor<uint64, []>(16474944))), lut = tensor<fp16, [16]>(BLOBFILE(path = tensor<string, []>("@model_path/weights/weight.bin"), offset = tensor<uint64, []>(17294208))), name = tensor<string, []>("layers_0_self_attn_v_proj_pretrained_weight_to_fp16_palettized"), shape = tensor<uint32, [4]>([1280, 1280, 1, 1])];
            tensor<fp16, [1280]> layers_0_self_attn_v_proj_pretrained_bias_to_fp16 = const()[name = tensor<string, []>("layers_0_self_attn_v_proj_pretrained_bias_to_fp16"), val = tensor<fp16, [1280]>(BLOBFILE(path = tensor<string, []>("@model_path/weights/weight.bin"), offset = tensor<uint64, []>(17294336)))];
            tensor<fp16, [1, 1280, 1, 1500]> pretrained_out_5_cast_fp16 = conv(bias = layers_0_self_attn_v_proj_pretrained_bias_to_fp16, dilations = var_267, groups = var_180, pad = pretrained_out_5_pad_0, pad_type = pretrained_out_5_pad_type_0, strides = var_265, weight = layers_0_self_attn_v_proj_pretrained_weight_to_fp16_palettized, x = obj_1_cast_fp16)[name = tensor<string, []>("pretrained_out_5_cast_fp16")];
            tensor<int32, [2]> var_271 = const()[name = tensor<string, []>("op_271"), val = tensor<int32, [2]>([1, 1])];
            tensor<int32, [2]> var_273 = const()[name = tensor<string, []>("op_273"), val = tensor<int32, [2]>([1, 1])];
            tensor<string, []> input_5_pad_type_0 = const()[name = tensor<string, []>("input_5_pad_type_0"), val = tensor<string, []>("custom")];
            tensor<int32, [4]> input_5_pad_0 = const()[name = tensor<string, []>("input_5_pad_0"), val = tensor<int32, [4]>([0, 0, 0, 0])];
            tensor<fp16, [16, 1280, 1, 1]> layers_0_self_attn_v_proj_loraA_weight_to_fp16 = const()[name = tensor<string, []>("layers_0_self_attn_v_proj_loraA_weight_to_fp16"), val = tensor<fp16, [16, 1280, 1, 1]>(BLOBFILE(path = tensor<string, []>("@model_path/weights/weight.bin"), offset = tensor<uint64, []>(17296960)))];
            tensor<fp16, [1, 16, 1, 1500]> input_5_cast_fp16 = conv(dilations = var_273, groups = var_180, pad = input_5_pad_0, pad_type = input_5_pad_type_0, strides = var_271, weight = layers_0_self_attn_v_proj_loraA_weight_to_fp16, x = obj_1_cast_fp16)[name = tensor<string, []>("input_5_cast_fp16")];
            tensor<int32, [2]> var_277 = const()[name = tensor<string, []>("op_277"), val = tensor<int32, [2]>([1, 1])];
            tensor<int32, [2]> var_279 = const()[name = tensor<string, []>("op_279"), val = tensor<int32, [2]>([1, 1])];
            tensor<string, []> lora_out_9_pad_type_0 = const()[name = tensor<string, []>("lora_out_9_pad_type_0"), val = tensor<string, []>("custom")];
            tensor<int32, [4]> lora_out_9_pad_0 = const()[name = tensor<string, []>("lora_out_9_pad_0"), val = tensor<int32, [4]>([0, 0, 0, 0])];
            tensor<fp16, [1280, 16, 1, 1]> lora_out_11_weight_0_to_fp16 = const()[name = tensor<string, []>("lora_out_11_weight_0_to_fp16"), val = tensor<fp16, [1280, 16, 1, 1]>(BLOBFILE(path = tensor<string, []>("@model_path/weights/weight.bin"), offset = tensor<uint64, []>(17337984)))];
            tensor<fp16, [1, 1280, 1, 1500]> lora_out_11_cast_fp16 = conv(bias = obj_1_mean_0_to_fp16, dilations = var_279, groups = var_180, pad = lora_out_9_pad_0, pad_type = lora_out_9_pad_type_0, strides = var_277, weight = lora_out_11_weight_0_to_fp16, x = input_5_cast_fp16)[name = tensor<string, []>("lora_out_11_cast_fp16")];
            tensor<fp16, [1, 1280, 1, 1500]> value_1_cast_fp16 = add(x = pretrained_out_5_cast_fp16, y = lora_out_11_cast_fp16)[name = tensor<string, []>("value_1_cast_fp16")];
            tensor<int32, [4]> var_286 = const()[name = tensor<string, []>("op_286"), val = tensor<int32, [4]>([1, 20, 64, -1])];
            tensor<fp16, [1, 20, 64, 1500]> var_287_cast_fp16 = reshape(shape = var_286, x = query_1_cast_fp16)[name = tensor<string, []>("op_287_cast_fp16")];
            tensor<fp16, []> var_288_to_fp16 = const()[name = tensor<string, []>("op_288_to_fp16"), val = tensor<fp16, []>(0x1p-3)];
            tensor<fp16, [1, 20, 64, 1500]> var_289_cast_fp16 = mul(x = var_287_cast_fp16, y = var_288_to_fp16)[name = tensor<string, []>("op_289_cast_fp16")];
            tensor<int32, [4]> var_290 = const()[name = tensor<string, []>("op_290"), val = tensor<int32, [4]>([1, 20, 64, -1])];
            tensor<fp16, [1, 20, 64, 1500]> var_291_cast_fp16 = reshape(shape = var_290, x = key_1_cast_fp16)[name = tensor<string, []>("op_291_cast_fp16")];
            tensor<bool, []> mh_w_1_transpose_x_0 = const()[name = tensor<string, []>("mh_w_1_transpose_x_0"), val = tensor<bool, []>(true)];
            tensor<bool, []> mh_w_1_transpose_y_0 = const()[name = tensor<string, []>("mh_w_1_transpose_y_0"), val = tensor<bool, []>(false)];
            tensor<fp16, [1, 20, 1500, 1500]> mh_w_1_cast_fp16 = matmul(transpose_x = mh_w_1_transpose_x_0, transpose_y = mh_w_1_transpose_y_0, x = var_289_cast_fp16, y = var_291_cast_fp16)[name = tensor<string, []>("mh_w_1_cast_fp16")];
            tensor<fp16, [1, 20, 1500, 1500]> var_294_cast_fp16 = softmax(axis = var_178, x = mh_w_1_cast_fp16)[name = tensor<string, []>("op_294_cast_fp16")];
            tensor<int32, [4]> var_295 = const()[name = tensor<string, []>("op_295"), val = tensor<int32, [4]>([1, 20, 64, -1])];
            tensor<fp16, [1, 20, 64, 1500]> var_296_cast_fp16 = reshape(shape = var_295, x = value_1_cast_fp16)[name = tensor<string, []>("op_296_cast_fp16")];
            tensor<bool, []> attn_1_transpose_x_0 = const()[name = tensor<string, []>("attn_1_transpose_x_0"), val = tensor<bool, []>(false)];
            tensor<bool, []> attn_1_transpose_y_0 = const()[name = tensor<string, []>("attn_1_transpose_y_0"), val = tensor<bool, []>(true)];
            tensor<fp16, [1, 20, 64, 1500]> attn_1_cast_fp16 = matmul(transpose_x = attn_1_transpose_x_0, transpose_y = attn_1_transpose_y_0, x = var_296_cast_fp16, y = var_294_cast_fp16)[name = tensor<string, []>("attn_1_cast_fp16")];
            tensor<int32, [4]> var_299 = const()[name = tensor<string, []>("op_299"), val = tensor<int32, [4]>([1, 1280, 1, -1])];
            tensor<fp16, [1, 1280, 1, 1500]> input_7_cast_fp16 = reshape(shape = var_299, x = attn_1_cast_fp16)[name = tensor<string, []>("input_7_cast_fp16")];
            tensor<int32, [2]> var_306 = const()[name = tensor<string, []>("op_306"), val = tensor<int32, [2]>([1, 1])];
            tensor<int32, [2]> var_308 = const()[name = tensor<string, []>("op_308"), val = tensor<int32, [2]>([1, 1])];
            tensor<string, []> pretrained_out_7_pad_type_0 = const()[name = tensor<string, []>("pretrained_out_7_pad_type_0"), val = tensor<string, []>("custom")];
            tensor<int32, [4]> pretrained_out_7_pad_0 = const()[name = tensor<string, []>("pretrained_out_7_pad_0"), val = tensor<int32, [4]>([0, 0, 0, 0])];
            tensor<fp16, [1280, 1280, 1, 1]> layers_0_self_attn_o_proj_pretrained_weight_to_fp16_palettized = constexpr_lut_to_dense()[indices = tensor<uint8, [819200]>(BLOBFILE(path = tensor<string, []>("@model_path/weights/weight.bin"), offset = tensor<uint64, []>(17379008))), lut = tensor<fp16, [16]>(BLOBFILE(path = tensor<string, []>("@model_path/weights/weight.bin"), offset = tensor<uint64, []>(18198272))), name = tensor<string, []>("layers_0_self_attn_o_proj_pretrained_weight_to_fp16_palettized"), shape = tensor<uint32, [4]>([1280, 1280, 1, 1])];
            tensor<fp16, [1280]> layers_0_self_attn_o_proj_pretrained_bias_to_fp16 = const()[name = tensor<string, []>("layers_0_self_attn_o_proj_pretrained_bias_to_fp16"), val = tensor<fp16, [1280]>(BLOBFILE(path = tensor<string, []>("@model_path/weights/weight.bin"), offset = tensor<uint64, []>(18198400)))];
            tensor<fp16, [1, 1280, 1, 1500]> pretrained_out_7_cast_fp16 = conv(bias = layers_0_self_attn_o_proj_pretrained_bias_to_fp16, dilations = var_308, groups = var_180, pad = pretrained_out_7_pad_0, pad_type = pretrained_out_7_pad_type_0, strides = var_306, weight = layers_0_self_attn_o_proj_pretrained_weight_to_fp16_palettized, x = input_7_cast_fp16)[name = tensor<string, []>("pretrained_out_7_cast_fp16")];
            tensor<int32, [2]> var_312 = const()[name = tensor<string, []>("op_312"), val = tensor<int32, [2]>([1, 1])];
            tensor<int32, [2]> var_314 = const()[name = tensor<string, []>("op_314"), val = tensor<int32, [2]>([1, 1])];
            tensor<string, []> input_9_pad_type_0 = const()[name = tensor<string, []>("input_9_pad_type_0"), val = tensor<string, []>("custom")];
            tensor<int32, [4]> input_9_pad_0 = const()[name = tensor<string, []>("input_9_pad_0"), val = tensor<int32, [4]>([0, 0, 0, 0])];
            tensor<fp16, [16, 1280, 1, 1]> layers_0_self_attn_o_proj_loraA_weight_to_fp16 = const()[name = tensor<string, []>("layers_0_self_attn_o_proj_loraA_weight_to_fp16"), val = tensor<fp16, [16, 1280, 1, 1]>(BLOBFILE(path = tensor<string, []>("@model_path/weights/weight.bin"), offset = tensor<uint64, []>(18201024)))];
            tensor<fp16, [1, 16, 1, 1500]> input_9_cast_fp16 = conv(dilations = var_314, groups = var_180, pad = input_9_pad_0, pad_type = input_9_pad_type_0, strides = var_312, weight = layers_0_self_attn_o_proj_loraA_weight_to_fp16, x = input_7_cast_fp16)[name = tensor<string, []>("input_9_cast_fp16")];
            tensor<int32, [2]> var_318 = const()[name = tensor<string, []>("op_318"), val = tensor<int32, [2]>([1, 1])];
            tensor<int32, [2]> var_320 = const()[name = tensor<string, []>("op_320"), val = tensor<int32, [2]>([1, 1])];
            tensor<string, []> lora_out_13_pad_type_0 = const()[name = tensor<string, []>("lora_out_13_pad_type_0"), val = tensor<string, []>("custom")];
            tensor<int32, [4]> lora_out_13_pad_0 = const()[name = tensor<string, []>("lora_out_13_pad_0"), val = tensor<int32, [4]>([0, 0, 0, 0])];
            tensor<fp16, [1280, 16, 1, 1]> lora_out_15_weight_0_to_fp16 = const()[name = tensor<string, []>("lora_out_15_weight_0_to_fp16"), val = tensor<fp16, [1280, 16, 1, 1]>(BLOBFILE(path = tensor<string, []>("@model_path/weights/weight.bin"), offset = tensor<uint64, []>(18242048)))];
            tensor<fp16, [1, 1280, 1, 1500]> lora_out_15_cast_fp16 = conv(bias = obj_1_mean_0_to_fp16, dilations = var_320, groups = var_180, pad = lora_out_13_pad_0, pad_type = lora_out_13_pad_type_0, strides = var_318, weight = lora_out_15_weight_0_to_fp16, x = input_9_cast_fp16)[name = tensor<string, []>("lora_out_15_cast_fp16")];
            tensor<fp16, [1, 1280, 1, 1500]> obj_3_cast_fp16 = add(x = pretrained_out_7_cast_fp16, y = lora_out_15_cast_fp16)[name = tensor<string, []>("obj_3_cast_fp16")];
            tensor<fp16, [1, 1280, 1, 1500]> inputs_3_cast_fp16 = add(x = inputs_1_cast_fp16, y = obj_3_cast_fp16)[name = tensor<string, []>("inputs_3_cast_fp16")];
            tensor<int32, [1]> var_329 = const()[name = tensor<string, []>("op_329"), val = tensor<int32, [1]>([1])];
            tensor<fp16, [1, 1, 1, 1500]> channels_mean_3_cast_fp16 = reduce_mean(axes = var_329, keep_dims = var_181, x = inputs_3_cast_fp16)[name = tensor<string, []>("channels_mean_3_cast_fp16")];
            tensor<fp16, [1, 1280, 1, 1500]> zero_mean_3_cast_fp16 = sub(x = inputs_3_cast_fp16, y = channels_mean_3_cast_fp16)[name = tensor<string, []>("zero_mean_3_cast_fp16")];
            tensor<fp16, [1, 1280, 1, 1500]> zero_mean_sq_3_cast_fp16 = mul(x = zero_mean_3_cast_fp16, y = zero_mean_3_cast_fp16)[name = tensor<string, []>("zero_mean_sq_3_cast_fp16")];
            tensor<int32, [1]> var_333 = const()[name = tensor<string, []>("op_333"), val = tensor<int32, [1]>([1])];
            tensor<fp16, [1, 1, 1, 1500]> var_334_cast_fp16 = reduce_mean(axes = var_333, keep_dims = var_181, x = zero_mean_sq_3_cast_fp16)[name = tensor<string, []>("op_334_cast_fp16")];
            tensor<fp16, []> var_335_to_fp16 = const()[name = tensor<string, []>("op_335_to_fp16"), val = tensor<fp16, []>(0x1.5p-17)];
            tensor<fp16, [1, 1, 1, 1500]> var_336_cast_fp16 = add(x = var_334_cast_fp16, y = var_335_to_fp16)[name = tensor<string, []>("op_336_cast_fp16")];
            tensor<fp32, []> denom_3_epsilon_0 = const()[name = tensor<string, []>("denom_3_epsilon_0"), val = tensor<fp32, []>(0x1.197998p-40)];
            tensor<fp16, [1, 1, 1, 1500]> denom_3_cast_fp16 = rsqrt(epsilon = denom_3_epsilon_0, x = var_336_cast_fp16)[name = tensor<string, []>("denom_3_cast_fp16")];
            tensor<fp16, [1, 1280, 1, 1500]> out_3_cast_fp16 = mul(x = zero_mean_3_cast_fp16, y = denom_3_cast_fp16)[name = tensor<string, []>("out_3_cast_fp16")];
            tensor<fp16, [1280]> input_11_gamma_0_to_fp16 = const()[name = tensor<string, []>("input_11_gamma_0_to_fp16"), val = tensor<fp16, [1280]>(BLOBFILE(path = tensor<string, []>("@model_path/weights/weight.bin"), offset = tensor<uint64, []>(18283072)))];
            tensor<fp16, [1280]> input_11_beta_0_to_fp16 = const()[name = tensor<string, []>("input_11_beta_0_to_fp16"), val = tensor<fp16, [1280]>(BLOBFILE(path = tensor<string, []>("@model_path/weights/weight.bin"), offset = tensor<uint64, []>(18285696)))];
            tensor<fp16, []> input_11_epsilon_0_to_fp16 = const()[name = tensor<string, []>("input_11_epsilon_0_to_fp16"), val = tensor<fp16, []>(0x1.5p-17)];
            tensor<fp16, [1, 1280, 1, 1500]> input_11_cast_fp16 = batch_norm(beta = input_11_beta_0_to_fp16, epsilon = input_11_epsilon_0_to_fp16, gamma = input_11_gamma_0_to_fp16, mean = obj_1_mean_0_to_fp16, variance = obj_1_variance_0_to_fp16, x = out_3_cast_fp16)[name = tensor<string, []>("input_11_cast_fp16")];
            tensor<int32, [2]> var_350 = const()[name = tensor<string, []>("op_350"), val = tensor<int32, [2]>([1, 1])];
            tensor<int32, [2]> var_352 = const()[name = tensor<string, []>("op_352"), val = tensor<int32, [2]>([1, 1])];
            tensor<string, []> pretrained_out_9_pad_type_0 = const()[name = tensor<string, []>("pretrained_out_9_pad_type_0"), val = tensor<string, []>("custom")];
            tensor<int32, [4]> pretrained_out_9_pad_0 = const()[name = tensor<string, []>("pretrained_out_9_pad_0"), val = tensor<int32, [4]>([0, 0, 0, 0])];
            tensor<fp16, [5120, 1280, 1, 1]> layers_0_fc1_pretrained_weight_to_fp16_palettized = constexpr_lut_to_dense()[indices = tensor<uint8, [3276800]>(BLOBFILE(path = tensor<string, []>("@model_path/weights/weight.bin"), offset = tensor<uint64, []>(18288320))), lut = tensor<fp16, [16]>(BLOBFILE(path = tensor<string, []>("@model_path/weights/weight.bin"), offset = tensor<uint64, []>(21565184))), name = tensor<string, []>("layers_0_fc1_pretrained_weight_to_fp16_palettized"), shape = tensor<uint32, [4]>([5120, 1280, 1, 1])];
            tensor<fp16, [5120]> layers_0_fc1_pretrained_bias_to_fp16 = const()[name = tensor<string, []>("layers_0_fc1_pretrained_bias_to_fp16"), val = tensor<fp16, [5120]>(BLOBFILE(path = tensor<string, []>("@model_path/weights/weight.bin"), offset = tensor<uint64, []>(21565312)))];
            tensor<fp16, [1, 5120, 1, 1500]> pretrained_out_9_cast_fp16 = conv(bias = layers_0_fc1_pretrained_bias_to_fp16, dilations = var_352, groups = var_180, pad = pretrained_out_9_pad_0, pad_type = pretrained_out_9_pad_type_0, strides = var_350, weight = layers_0_fc1_pretrained_weight_to_fp16_palettized, x = input_11_cast_fp16)[name = tensor<string, []>("pretrained_out_9_cast_fp16")];
            tensor<int32, [2]> var_356 = const()[name = tensor<string, []>("op_356"), val = tensor<int32, [2]>([1, 1])];
            tensor<int32, [2]> var_358 = const()[name = tensor<string, []>("op_358"), val = tensor<int32, [2]>([1, 1])];
            tensor<string, []> input_13_pad_type_0 = const()[name = tensor<string, []>("input_13_pad_type_0"), val = tensor<string, []>("custom")];
            tensor<int32, [4]> input_13_pad_0 = const()[name = tensor<string, []>("input_13_pad_0"), val = tensor<int32, [4]>([0, 0, 0, 0])];
            tensor<fp16, [16, 1280, 1, 1]> layers_0_fc1_loraA_weight_to_fp16 = const()[name = tensor<string, []>("layers_0_fc1_loraA_weight_to_fp16"), val = tensor<fp16, [16, 1280, 1, 1]>(BLOBFILE(path = tensor<string, []>("@model_path/weights/weight.bin"), offset = tensor<uint64, []>(21575616)))];
            tensor<fp16, [1, 16, 1, 1500]> input_13_cast_fp16 = conv(dilations = var_358, groups = var_180, pad = input_13_pad_0, pad_type = input_13_pad_type_0, strides = var_356, weight = layers_0_fc1_loraA_weight_to_fp16, x = input_11_cast_fp16)[name = tensor<string, []>("input_13_cast_fp16")];
            tensor<int32, [2]> var_362 = const()[name = tensor<string, []>("op_362"), val = tensor<int32, [2]>([1, 1])];
            tensor<int32, [2]> var_364 = const()[name = tensor<string, []>("op_364"), val = tensor<int32, [2]>([1, 1])];
            tensor<string, []> lora_out_17_pad_type_0 = const()[name = tensor<string, []>("lora_out_17_pad_type_0"), val = tensor<string, []>("custom")];
            tensor<int32, [4]> lora_out_17_pad_0 = const()[name = tensor<string, []>("lora_out_17_pad_0"), val = tensor<int32, [4]>([0, 0, 0, 0])];
            tensor<fp16, [5120, 16, 1, 1]> lora_out_19_weight_0_to_fp16 = const()[name = tensor<string, []>("lora_out_19_weight_0_to_fp16"), val = tensor<fp16, [5120, 16, 1, 1]>(BLOBFILE(path = tensor<string, []>("@model_path/weights/weight.bin"), offset = tensor<uint64, []>(21616640)))];
            tensor<fp16, [5120]> lora_out_19_bias_0_to_fp16 = const()[name = tensor<string, []>("lora_out_19_bias_0_to_fp16"), val = tensor<fp16, [5120]>(BLOBFILE(path = tensor<string, []>("@model_path/weights/weight.bin"), offset = tensor<uint64, []>(21780544)))];
            tensor<fp16, [1, 5120, 1, 1500]> lora_out_19_cast_fp16 = conv(bias = lora_out_19_bias_0_to_fp16, dilations = var_364, groups = var_180, pad = lora_out_17_pad_0, pad_type = lora_out_17_pad_type_0, strides = var_362, weight = lora_out_19_weight_0_to_fp16, x = input_13_cast_fp16)[name = tensor<string, []>("lora_out_19_cast_fp16")];
            tensor<fp16, [1, 5120, 1, 1500]> input_15_cast_fp16 = add(x = pretrained_out_9_cast_fp16, y = lora_out_19_cast_fp16)[name = tensor<string, []>("input_15_cast_fp16")];
            tensor<string, []> input_17_mode_0 = const()[name = tensor<string, []>("input_17_mode_0"), val = tensor<string, []>("EXACT")];
            tensor<fp16, [1, 5120, 1, 1500]> input_17_cast_fp16 = gelu(mode = input_17_mode_0, x = input_15_cast_fp16)[name = tensor<string, []>("input_17_cast_fp16")];
            tensor<int32, [2]> var_376 = const()[name = tensor<string, []>("op_376"), val = tensor<int32, [2]>([1, 1])];
            tensor<int32, [2]> var_378 = const()[name = tensor<string, []>("op_378"), val = tensor<int32, [2]>([1, 1])];
            tensor<string, []> pretrained_out_11_pad_type_0 = const()[name = tensor<string, []>("pretrained_out_11_pad_type_0"), val = tensor<string, []>("custom")];
            tensor<int32, [4]> pretrained_out_11_pad_0 = const()[name = tensor<string, []>("pretrained_out_11_pad_0"), val = tensor<int32, [4]>([0, 0, 0, 0])];
            tensor<fp16, [1280, 5120, 1, 1]> layers_0_fc2_pretrained_weight_to_fp16_palettized = constexpr_lut_to_dense()[indices = tensor<uint8, [3276800]>(BLOBFILE(path = tensor<string, []>("@model_path/weights/weight.bin"), offset = tensor<uint64, []>(21790848))), lut = tensor<fp16, [16]>(BLOBFILE(path = tensor<string, []>("@model_path/weights/weight.bin"), offset = tensor<uint64, []>(25067712))), name = tensor<string, []>("layers_0_fc2_pretrained_weight_to_fp16_palettized"), shape = tensor<uint32, [4]>([1280, 5120, 1, 1])];
            tensor<fp16, [1280]> layers_0_fc2_pretrained_bias_to_fp16 = const()[name = tensor<string, []>("layers_0_fc2_pretrained_bias_to_fp16"), val = tensor<fp16, [1280]>(BLOBFILE(path = tensor<string, []>("@model_path/weights/weight.bin"), offset = tensor<uint64, []>(25067840)))];
            tensor<fp16, [1, 1280, 1, 1500]> pretrained_out_11_cast_fp16 = conv(bias = layers_0_fc2_pretrained_bias_to_fp16, dilations = var_378, groups = var_180, pad = pretrained_out_11_pad_0, pad_type = pretrained_out_11_pad_type_0, strides = var_376, weight = layers_0_fc2_pretrained_weight_to_fp16_palettized, x = input_17_cast_fp16)[name = tensor<string, []>("pretrained_out_11_cast_fp16")];
            tensor<int32, [2]> var_382 = const()[name = tensor<string, []>("op_382"), val = tensor<int32, [2]>([1, 1])];
            tensor<int32, [2]> var_384 = const()[name = tensor<string, []>("op_384"), val = tensor<int32, [2]>([1, 1])];
            tensor<string, []> input_19_pad_type_0 = const()[name = tensor<string, []>("input_19_pad_type_0"), val = tensor<string, []>("custom")];
            tensor<int32, [4]> input_19_pad_0 = const()[name = tensor<string, []>("input_19_pad_0"), val = tensor<int32, [4]>([0, 0, 0, 0])];
            tensor<fp16, [16, 5120, 1, 1]> layers_0_fc2_loraA_weight_to_fp16 = const()[name = tensor<string, []>("layers_0_fc2_loraA_weight_to_fp16"), val = tensor<fp16, [16, 5120, 1, 1]>(BLOBFILE(path = tensor<string, []>("@model_path/weights/weight.bin"), offset = tensor<uint64, []>(25070464)))];
            tensor<fp16, [1, 16, 1, 1500]> input_19_cast_fp16 = conv(dilations = var_384, groups = var_180, pad = input_19_pad_0, pad_type = input_19_pad_type_0, strides = var_382, weight = layers_0_fc2_loraA_weight_to_fp16, x = input_17_cast_fp16)[name = tensor<string, []>("input_19_cast_fp16")];
            tensor<int32, [2]> var_388 = const()[name = tensor<string, []>("op_388"), val = tensor<int32, [2]>([1, 1])];
            tensor<int32, [2]> var_390 = const()[name = tensor<string, []>("op_390"), val = tensor<int32, [2]>([1, 1])];
            tensor<string, []> lora_out_21_pad_type_0 = const()[name = tensor<string, []>("lora_out_21_pad_type_0"), val = tensor<string, []>("custom")];
            tensor<int32, [4]> lora_out_21_pad_0 = const()[name = tensor<string, []>("lora_out_21_pad_0"), val = tensor<int32, [4]>([0, 0, 0, 0])];
            tensor<fp16, [1280, 16, 1, 1]> lora_out_23_weight_0_to_fp16 = const()[name = tensor<string, []>("lora_out_23_weight_0_to_fp16"), val = tensor<fp16, [1280, 16, 1, 1]>(BLOBFILE(path = tensor<string, []>("@model_path/weights/weight.bin"), offset = tensor<uint64, []>(25234368)))];
            tensor<fp16, [1, 1280, 1, 1500]> lora_out_23_cast_fp16 = conv(bias = obj_1_mean_0_to_fp16, dilations = var_390, groups = var_180, pad = lora_out_21_pad_0, pad_type = lora_out_21_pad_type_0, strides = var_388, weight = lora_out_23_weight_0_to_fp16, x = input_19_cast_fp16)[name = tensor<string, []>("lora_out_23_cast_fp16")];
            tensor<fp16, [1, 1280, 1, 1500]> hidden_states_5_cast_fp16 = add(x = pretrained_out_11_cast_fp16, y = lora_out_23_cast_fp16)[name = tensor<string, []>("hidden_states_5_cast_fp16")];
            tensor<fp16, [1, 1280, 1, 1500]> inputs_5_cast_fp16 = add(x = inputs_3_cast_fp16, y = hidden_states_5_cast_fp16)[name = tensor<string, []>("inputs_5_cast_fp16")];
            tensor<int32, []> var_404 = const()[name = tensor<string, []>("op_404"), val = tensor<int32, []>(3)];
            tensor<int32, []> var_406 = const()[name = tensor<string, []>("op_406"), val = tensor<int32, []>(1)];
            tensor<bool, []> var_407 = const()[name = tensor<string, []>("op_407"), val = tensor<bool, []>(true)];
            tensor<int32, [1]> var_417 = const()[name = tensor<string, []>("op_417"), val = tensor<int32, [1]>([1])];
            tensor<fp16, [1, 1, 1, 1500]> channels_mean_5_cast_fp16 = reduce_mean(axes = var_417, keep_dims = var_407, x = inputs_5_cast_fp16)[name = tensor<string, []>("channels_mean_5_cast_fp16")];
            tensor<fp16, [1, 1280, 1, 1500]> zero_mean_5_cast_fp16 = sub(x = inputs_5_cast_fp16, y = channels_mean_5_cast_fp16)[name = tensor<string, []>("zero_mean_5_cast_fp16")];
            tensor<fp16, [1, 1280, 1, 1500]> zero_mean_sq_5_cast_fp16 = mul(x = zero_mean_5_cast_fp16, y = zero_mean_5_cast_fp16)[name = tensor<string, []>("zero_mean_sq_5_cast_fp16")];
            tensor<int32, [1]> var_421 = const()[name = tensor<string, []>("op_421"), val = tensor<int32, [1]>([1])];
            tensor<fp16, [1, 1, 1, 1500]> var_422_cast_fp16 = reduce_mean(axes = var_421, keep_dims = var_407, x = zero_mean_sq_5_cast_fp16)[name = tensor<string, []>("op_422_cast_fp16")];
            tensor<fp16, []> var_423_to_fp16 = const()[name = tensor<string, []>("op_423_to_fp16"), val = tensor<fp16, []>(0x1.5p-17)];
            tensor<fp16, [1, 1, 1, 1500]> var_424_cast_fp16 = add(x = var_422_cast_fp16, y = var_423_to_fp16)[name = tensor<string, []>("op_424_cast_fp16")];
            tensor<fp32, []> denom_5_epsilon_0 = const()[name = tensor<string, []>("denom_5_epsilon_0"), val = tensor<fp32, []>(0x1.197998p-40)];
            tensor<fp16, [1, 1, 1, 1500]> denom_5_cast_fp16 = rsqrt(epsilon = denom_5_epsilon_0, x = var_424_cast_fp16)[name = tensor<string, []>("denom_5_cast_fp16")];
            tensor<fp16, [1, 1280, 1, 1500]> out_5_cast_fp16 = mul(x = zero_mean_5_cast_fp16, y = denom_5_cast_fp16)[name = tensor<string, []>("out_5_cast_fp16")];
            tensor<fp16, [1280]> obj_5_gamma_0_to_fp16 = const()[name = tensor<string, []>("obj_5_gamma_0_to_fp16"), val = tensor<fp16, [1280]>(BLOBFILE(path = tensor<string, []>("@model_path/weights/weight.bin"), offset = tensor<uint64, []>(25275392)))];
            tensor<fp16, [1280]> obj_5_beta_0_to_fp16 = const()[name = tensor<string, []>("obj_5_beta_0_to_fp16"), val = tensor<fp16, [1280]>(BLOBFILE(path = tensor<string, []>("@model_path/weights/weight.bin"), offset = tensor<uint64, []>(25278016)))];
            tensor<fp16, []> obj_5_epsilon_0_to_fp16 = const()[name = tensor<string, []>("obj_5_epsilon_0_to_fp16"), val = tensor<fp16, []>(0x1.5p-17)];
            tensor<fp16, [1, 1280, 1, 1500]> obj_5_cast_fp16 = batch_norm(beta = obj_5_beta_0_to_fp16, epsilon = obj_5_epsilon_0_to_fp16, gamma = obj_5_gamma_0_to_fp16, mean = obj_1_mean_0_to_fp16, variance = obj_1_variance_0_to_fp16, x = out_5_cast_fp16)[name = tensor<string, []>("obj_5_cast_fp16")];
            tensor<int32, [2]> var_442 = const()[name = tensor<string, []>("op_442"), val = tensor<int32, [2]>([1, 1])];
            tensor<int32, [2]> var_444 = const()[name = tensor<string, []>("op_444"), val = tensor<int32, [2]>([1, 1])];
            tensor<string, []> pretrained_out_13_pad_type_0 = const()[name = tensor<string, []>("pretrained_out_13_pad_type_0"), val = tensor<string, []>("custom")];
            tensor<int32, [4]> pretrained_out_13_pad_0 = const()[name = tensor<string, []>("pretrained_out_13_pad_0"), val = tensor<int32, [4]>([0, 0, 0, 0])];
            tensor<fp16, [1280, 1280, 1, 1]> layers_1_self_attn_q_proj_pretrained_weight_to_fp16_palettized = constexpr_lut_to_dense()[indices = tensor<uint8, [819200]>(BLOBFILE(path = tensor<string, []>("@model_path/weights/weight.bin"), offset = tensor<uint64, []>(25280640))), lut = tensor<fp16, [16]>(BLOBFILE(path = tensor<string, []>("@model_path/weights/weight.bin"), offset = tensor<uint64, []>(26099904))), name = tensor<string, []>("layers_1_self_attn_q_proj_pretrained_weight_to_fp16_palettized"), shape = tensor<uint32, [4]>([1280, 1280, 1, 1])];
            tensor<fp16, [1280]> layers_1_self_attn_q_proj_pretrained_bias_to_fp16 = const()[name = tensor<string, []>("layers_1_self_attn_q_proj_pretrained_bias_to_fp16"), val = tensor<fp16, [1280]>(BLOBFILE(path = tensor<string, []>("@model_path/weights/weight.bin"), offset = tensor<uint64, []>(26100032)))];
            tensor<fp16, [1, 1280, 1, 1500]> pretrained_out_13_cast_fp16 = conv(bias = layers_1_self_attn_q_proj_pretrained_bias_to_fp16, dilations = var_444, groups = var_406, pad = pretrained_out_13_pad_0, pad_type = pretrained_out_13_pad_type_0, strides = var_442, weight = layers_1_self_attn_q_proj_pretrained_weight_to_fp16_palettized, x = obj_5_cast_fp16)[name = tensor<string, []>("pretrained_out_13_cast_fp16")];
            tensor<int32, [2]> var_448 = const()[name = tensor<string, []>("op_448"), val = tensor<int32, [2]>([1, 1])];
            tensor<int32, [2]> var_450 = const()[name = tensor<string, []>("op_450"), val = tensor<int32, [2]>([1, 1])];
            tensor<string, []> input_21_pad_type_0 = const()[name = tensor<string, []>("input_21_pad_type_0"), val = tensor<string, []>("custom")];
            tensor<int32, [4]> input_21_pad_0 = const()[name = tensor<string, []>("input_21_pad_0"), val = tensor<int32, [4]>([0, 0, 0, 0])];
            tensor<fp16, [16, 1280, 1, 1]> layers_1_self_attn_q_proj_loraA_weight_to_fp16 = const()[name = tensor<string, []>("layers_1_self_attn_q_proj_loraA_weight_to_fp16"), val = tensor<fp16, [16, 1280, 1, 1]>(BLOBFILE(path = tensor<string, []>("@model_path/weights/weight.bin"), offset = tensor<uint64, []>(26102656)))];
            tensor<fp16, [1, 16, 1, 1500]> input_21_cast_fp16 = conv(dilations = var_450, groups = var_406, pad = input_21_pad_0, pad_type = input_21_pad_type_0, strides = var_448, weight = layers_1_self_attn_q_proj_loraA_weight_to_fp16, x = obj_5_cast_fp16)[name = tensor<string, []>("input_21_cast_fp16")];
            tensor<int32, [2]> var_454 = const()[name = tensor<string, []>("op_454"), val = tensor<int32, [2]>([1, 1])];
            tensor<int32, [2]> var_456 = const()[name = tensor<string, []>("op_456"), val = tensor<int32, [2]>([1, 1])];
            tensor<string, []> lora_out_25_pad_type_0 = const()[name = tensor<string, []>("lora_out_25_pad_type_0"), val = tensor<string, []>("custom")];
            tensor<int32, [4]> lora_out_25_pad_0 = const()[name = tensor<string, []>("lora_out_25_pad_0"), val = tensor<int32, [4]>([0, 0, 0, 0])];
            tensor<fp16, [1280, 16, 1, 1]> lora_out_27_weight_0_to_fp16 = const()[name = tensor<string, []>("lora_out_27_weight_0_to_fp16"), val = tensor<fp16, [1280, 16, 1, 1]>(BLOBFILE(path = tensor<string, []>("@model_path/weights/weight.bin"), offset = tensor<uint64, []>(26143680)))];
            tensor<fp16, [1, 1280, 1, 1500]> lora_out_27_cast_fp16 = conv(bias = obj_1_mean_0_to_fp16, dilations = var_456, groups = var_406, pad = lora_out_25_pad_0, pad_type = lora_out_25_pad_type_0, strides = var_454, weight = lora_out_27_weight_0_to_fp16, x = input_21_cast_fp16)[name = tensor<string, []>("lora_out_27_cast_fp16")];
            tensor<fp16, [1, 1280, 1, 1500]> query_3_cast_fp16 = add(x = pretrained_out_13_cast_fp16, y = lora_out_27_cast_fp16)[name = tensor<string, []>("query_3_cast_fp16")];
            tensor<int32, [2]> var_466 = const()[name = tensor<string, []>("op_466"), val = tensor<int32, [2]>([1, 1])];
            tensor<int32, [2]> var_468 = const()[name = tensor<string, []>("op_468"), val = tensor<int32, [2]>([1, 1])];
            tensor<string, []> pretrained_out_15_pad_type_0 = const()[name = tensor<string, []>("pretrained_out_15_pad_type_0"), val = tensor<string, []>("custom")];
            tensor<int32, [4]> pretrained_out_15_pad_0 = const()[name = tensor<string, []>("pretrained_out_15_pad_0"), val = tensor<int32, [4]>([0, 0, 0, 0])];
            tensor<fp16, [1280, 1280, 1, 1]> layers_1_self_attn_k_proj_pretrained_weight_to_fp16_palettized = constexpr_lut_to_dense()[indices = tensor<uint8, [819200]>(BLOBFILE(path = tensor<string, []>("@model_path/weights/weight.bin"), offset = tensor<uint64, []>(26184704))), lut = tensor<fp16, [16]>(BLOBFILE(path = tensor<string, []>("@model_path/weights/weight.bin"), offset = tensor<uint64, []>(27003968))), name = tensor<string, []>("layers_1_self_attn_k_proj_pretrained_weight_to_fp16_palettized"), shape = tensor<uint32, [4]>([1280, 1280, 1, 1])];
            tensor<fp16, [1, 1280, 1, 1500]> pretrained_out_15_cast_fp16 = conv(dilations = var_468, groups = var_406, pad = pretrained_out_15_pad_0, pad_type = pretrained_out_15_pad_type_0, strides = var_466, weight = layers_1_self_attn_k_proj_pretrained_weight_to_fp16_palettized, x = obj_5_cast_fp16)[name = tensor<string, []>("pretrained_out_15_cast_fp16")];
            tensor<int32, [2]> var_472 = const()[name = tensor<string, []>("op_472"), val = tensor<int32, [2]>([1, 1])];
            tensor<int32, [2]> var_474 = const()[name = tensor<string, []>("op_474"), val = tensor<int32, [2]>([1, 1])];
            tensor<string, []> input_23_pad_type_0 = const()[name = tensor<string, []>("input_23_pad_type_0"), val = tensor<string, []>("custom")];
            tensor<int32, [4]> input_23_pad_0 = const()[name = tensor<string, []>("input_23_pad_0"), val = tensor<int32, [4]>([0, 0, 0, 0])];
            tensor<fp16, [16, 1280, 1, 1]> layers_1_self_attn_k_proj_loraA_weight_to_fp16 = const()[name = tensor<string, []>("layers_1_self_attn_k_proj_loraA_weight_to_fp16"), val = tensor<fp16, [16, 1280, 1, 1]>(BLOBFILE(path = tensor<string, []>("@model_path/weights/weight.bin"), offset = tensor<uint64, []>(27004096)))];
            tensor<fp16, [1, 16, 1, 1500]> input_23_cast_fp16 = conv(dilations = var_474, groups = var_406, pad = input_23_pad_0, pad_type = input_23_pad_type_0, strides = var_472, weight = layers_1_self_attn_k_proj_loraA_weight_to_fp16, x = obj_5_cast_fp16)[name = tensor<string, []>("input_23_cast_fp16")];
            tensor<int32, [2]> var_478 = const()[name = tensor<string, []>("op_478"), val = tensor<int32, [2]>([1, 1])];
            tensor<int32, [2]> var_480 = const()[name = tensor<string, []>("op_480"), val = tensor<int32, [2]>([1, 1])];
            tensor<string, []> lora_out_29_pad_type_0 = const()[name = tensor<string, []>("lora_out_29_pad_type_0"), val = tensor<string, []>("custom")];
            tensor<int32, [4]> lora_out_29_pad_0 = const()[name = tensor<string, []>("lora_out_29_pad_0"), val = tensor<int32, [4]>([0, 0, 0, 0])];
            tensor<fp16, [1280, 16, 1, 1]> lora_out_31_weight_0_to_fp16 = const()[name = tensor<string, []>("lora_out_31_weight_0_to_fp16"), val = tensor<fp16, [1280, 16, 1, 1]>(BLOBFILE(path = tensor<string, []>("@model_path/weights/weight.bin"), offset = tensor<uint64, []>(27045120)))];
            tensor<fp16, [1, 1280, 1, 1500]> lora_out_31_cast_fp16 = conv(bias = obj_1_mean_0_to_fp16, dilations = var_480, groups = var_406, pad = lora_out_29_pad_0, pad_type = lora_out_29_pad_type_0, strides = var_478, weight = lora_out_31_weight_0_to_fp16, x = input_23_cast_fp16)[name = tensor<string, []>("lora_out_31_cast_fp16")];
            tensor<fp16, [1, 1280, 1, 1500]> key_3_cast_fp16 = add(x = pretrained_out_15_cast_fp16, y = lora_out_31_cast_fp16)[name = tensor<string, []>("key_3_cast_fp16")];
            tensor<int32, [2]> var_491 = const()[name = tensor<string, []>("op_491"), val = tensor<int32, [2]>([1, 1])];
            tensor<int32, [2]> var_493 = const()[name = tensor<string, []>("op_493"), val = tensor<int32, [2]>([1, 1])];
            tensor<string, []> pretrained_out_17_pad_type_0 = const()[name = tensor<string, []>("pretrained_out_17_pad_type_0"), val = tensor<string, []>("custom")];
            tensor<int32, [4]> pretrained_out_17_pad_0 = const()[name = tensor<string, []>("pretrained_out_17_pad_0"), val = tensor<int32, [4]>([0, 0, 0, 0])];
            tensor<fp16, [1280, 1280, 1, 1]> layers_1_self_attn_v_proj_pretrained_weight_to_fp16_palettized = constexpr_lut_to_dense()[indices = tensor<uint8, [819200]>(BLOBFILE(path = tensor<string, []>("@model_path/weights/weight.bin"), offset = tensor<uint64, []>(27086144))), lut = tensor<fp16, [16]>(BLOBFILE(path = tensor<string, []>("@model_path/weights/weight.bin"), offset = tensor<uint64, []>(27905408))), name = tensor<string, []>("layers_1_self_attn_v_proj_pretrained_weight_to_fp16_palettized"), shape = tensor<uint32, [4]>([1280, 1280, 1, 1])];
            tensor<fp16, [1280]> layers_1_self_attn_v_proj_pretrained_bias_to_fp16 = const()[name = tensor<string, []>("layers_1_self_attn_v_proj_pretrained_bias_to_fp16"), val = tensor<fp16, [1280]>(BLOBFILE(path = tensor<string, []>("@model_path/weights/weight.bin"), offset = tensor<uint64, []>(27905536)))];
            tensor<fp16, [1, 1280, 1, 1500]> pretrained_out_17_cast_fp16 = conv(bias = layers_1_self_attn_v_proj_pretrained_bias_to_fp16, dilations = var_493, groups = var_406, pad = pretrained_out_17_pad_0, pad_type = pretrained_out_17_pad_type_0, strides = var_491, weight = layers_1_self_attn_v_proj_pretrained_weight_to_fp16_palettized, x = obj_5_cast_fp16)[name = tensor<string, []>("pretrained_out_17_cast_fp16")];
            tensor<int32, [2]> var_497 = const()[name = tensor<string, []>("op_497"), val = tensor<int32, [2]>([1, 1])];
            tensor<int32, [2]> var_499 = const()[name = tensor<string, []>("op_499"), val = tensor<int32, [2]>([1, 1])];
            tensor<string, []> input_25_pad_type_0 = const()[name = tensor<string, []>("input_25_pad_type_0"), val = tensor<string, []>("custom")];
            tensor<int32, [4]> input_25_pad_0 = const()[name = tensor<string, []>("input_25_pad_0"), val = tensor<int32, [4]>([0, 0, 0, 0])];
            tensor<fp16, [16, 1280, 1, 1]> layers_1_self_attn_v_proj_loraA_weight_to_fp16 = const()[name = tensor<string, []>("layers_1_self_attn_v_proj_loraA_weight_to_fp16"), val = tensor<fp16, [16, 1280, 1, 1]>(BLOBFILE(path = tensor<string, []>("@model_path/weights/weight.bin"), offset = tensor<uint64, []>(27908160)))];
            tensor<fp16, [1, 16, 1, 1500]> input_25_cast_fp16 = conv(dilations = var_499, groups = var_406, pad = input_25_pad_0, pad_type = input_25_pad_type_0, strides = var_497, weight = layers_1_self_attn_v_proj_loraA_weight_to_fp16, x = obj_5_cast_fp16)[name = tensor<string, []>("input_25_cast_fp16")];
            tensor<int32, [2]> var_503 = const()[name = tensor<string, []>("op_503"), val = tensor<int32, [2]>([1, 1])];
            tensor<int32, [2]> var_505 = const()[name = tensor<string, []>("op_505"), val = tensor<int32, [2]>([1, 1])];
            tensor<string, []> lora_out_33_pad_type_0 = const()[name = tensor<string, []>("lora_out_33_pad_type_0"), val = tensor<string, []>("custom")];
            tensor<int32, [4]> lora_out_33_pad_0 = const()[name = tensor<string, []>("lora_out_33_pad_0"), val = tensor<int32, [4]>([0, 0, 0, 0])];
            tensor<fp16, [1280, 16, 1, 1]> lora_out_35_weight_0_to_fp16 = const()[name = tensor<string, []>("lora_out_35_weight_0_to_fp16"), val = tensor<fp16, [1280, 16, 1, 1]>(BLOBFILE(path = tensor<string, []>("@model_path/weights/weight.bin"), offset = tensor<uint64, []>(27949184)))];
            tensor<fp16, [1, 1280, 1, 1500]> lora_out_35_cast_fp16 = conv(bias = obj_1_mean_0_to_fp16, dilations = var_505, groups = var_406, pad = lora_out_33_pad_0, pad_type = lora_out_33_pad_type_0, strides = var_503, weight = lora_out_35_weight_0_to_fp16, x = input_25_cast_fp16)[name = tensor<string, []>("lora_out_35_cast_fp16")];
            tensor<fp16, [1, 1280, 1, 1500]> value_3_cast_fp16 = add(x = pretrained_out_17_cast_fp16, y = lora_out_35_cast_fp16)[name = tensor<string, []>("value_3_cast_fp16")];
            tensor<int32, [4]> var_512 = const()[name = tensor<string, []>("op_512"), val = tensor<int32, [4]>([1, 20, 64, -1])];
            tensor<fp16, [1, 20, 64, 1500]> var_513_cast_fp16 = reshape(shape = var_512, x = query_3_cast_fp16)[name = tensor<string, []>("op_513_cast_fp16")];
            tensor<fp16, []> var_514_to_fp16 = const()[name = tensor<string, []>("op_514_to_fp16"), val = tensor<fp16, []>(0x1p-3)];
            tensor<fp16, [1, 20, 64, 1500]> var_515_cast_fp16 = mul(x = var_513_cast_fp16, y = var_514_to_fp16)[name = tensor<string, []>("op_515_cast_fp16")];
            tensor<int32, [4]> var_516 = const()[name = tensor<string, []>("op_516"), val = tensor<int32, [4]>([1, 20, 64, -1])];
            tensor<fp16, [1, 20, 64, 1500]> var_517_cast_fp16 = reshape(shape = var_516, x = key_3_cast_fp16)[name = tensor<string, []>("op_517_cast_fp16")];
            tensor<bool, []> mh_w_3_transpose_x_0 = const()[name = tensor<string, []>("mh_w_3_transpose_x_0"), val = tensor<bool, []>(true)];
            tensor<bool, []> mh_w_3_transpose_y_0 = const()[name = tensor<string, []>("mh_w_3_transpose_y_0"), val = tensor<bool, []>(false)];
            tensor<fp16, [1, 20, 1500, 1500]> mh_w_3_cast_fp16 = matmul(transpose_x = mh_w_3_transpose_x_0, transpose_y = mh_w_3_transpose_y_0, x = var_515_cast_fp16, y = var_517_cast_fp16)[name = tensor<string, []>("mh_w_3_cast_fp16")];
            tensor<fp16, [1, 20, 1500, 1500]> var_520_cast_fp16 = softmax(axis = var_404, x = mh_w_3_cast_fp16)[name = tensor<string, []>("op_520_cast_fp16")];
            tensor<int32, [4]> var_521 = const()[name = tensor<string, []>("op_521"), val = tensor<int32, [4]>([1, 20, 64, -1])];
            tensor<fp16, [1, 20, 64, 1500]> var_522_cast_fp16 = reshape(shape = var_521, x = value_3_cast_fp16)[name = tensor<string, []>("op_522_cast_fp16")];
            tensor<bool, []> attn_3_transpose_x_0 = const()[name = tensor<string, []>("attn_3_transpose_x_0"), val = tensor<bool, []>(false)];
            tensor<bool, []> attn_3_transpose_y_0 = const()[name = tensor<string, []>("attn_3_transpose_y_0"), val = tensor<bool, []>(true)];
            tensor<fp16, [1, 20, 64, 1500]> attn_3_cast_fp16 = matmul(transpose_x = attn_3_transpose_x_0, transpose_y = attn_3_transpose_y_0, x = var_522_cast_fp16, y = var_520_cast_fp16)[name = tensor<string, []>("attn_3_cast_fp16")];
            tensor<int32, [4]> var_525 = const()[name = tensor<string, []>("op_525"), val = tensor<int32, [4]>([1, 1280, 1, -1])];
            tensor<fp16, [1, 1280, 1, 1500]> input_27_cast_fp16 = reshape(shape = var_525, x = attn_3_cast_fp16)[name = tensor<string, []>("input_27_cast_fp16")];
            tensor<int32, [2]> var_532 = const()[name = tensor<string, []>("op_532"), val = tensor<int32, [2]>([1, 1])];
            tensor<int32, [2]> var_534 = const()[name = tensor<string, []>("op_534"), val = tensor<int32, [2]>([1, 1])];
            tensor<string, []> pretrained_out_19_pad_type_0 = const()[name = tensor<string, []>("pretrained_out_19_pad_type_0"), val = tensor<string, []>("custom")];
            tensor<int32, [4]> pretrained_out_19_pad_0 = const()[name = tensor<string, []>("pretrained_out_19_pad_0"), val = tensor<int32, [4]>([0, 0, 0, 0])];
            tensor<fp16, [1280, 1280, 1, 1]> layers_1_self_attn_o_proj_pretrained_weight_to_fp16_palettized = constexpr_lut_to_dense()[indices = tensor<uint8, [819200]>(BLOBFILE(path = tensor<string, []>("@model_path/weights/weight.bin"), offset = tensor<uint64, []>(27990208))), lut = tensor<fp16, [16]>(BLOBFILE(path = tensor<string, []>("@model_path/weights/weight.bin"), offset = tensor<uint64, []>(28809472))), name = tensor<string, []>("layers_1_self_attn_o_proj_pretrained_weight_to_fp16_palettized"), shape = tensor<uint32, [4]>([1280, 1280, 1, 1])];
            tensor<fp16, [1280]> layers_1_self_attn_o_proj_pretrained_bias_to_fp16 = const()[name = tensor<string, []>("layers_1_self_attn_o_proj_pretrained_bias_to_fp16"), val = tensor<fp16, [1280]>(BLOBFILE(path = tensor<string, []>("@model_path/weights/weight.bin"), offset = tensor<uint64, []>(28809600)))];
            tensor<fp16, [1, 1280, 1, 1500]> pretrained_out_19_cast_fp16 = conv(bias = layers_1_self_attn_o_proj_pretrained_bias_to_fp16, dilations = var_534, groups = var_406, pad = pretrained_out_19_pad_0, pad_type = pretrained_out_19_pad_type_0, strides = var_532, weight = layers_1_self_attn_o_proj_pretrained_weight_to_fp16_palettized, x = input_27_cast_fp16)[name = tensor<string, []>("pretrained_out_19_cast_fp16")];
            tensor<int32, [2]> var_538 = const()[name = tensor<string, []>("op_538"), val = tensor<int32, [2]>([1, 1])];
            tensor<int32, [2]> var_540 = const()[name = tensor<string, []>("op_540"), val = tensor<int32, [2]>([1, 1])];
            tensor<string, []> input_29_pad_type_0 = const()[name = tensor<string, []>("input_29_pad_type_0"), val = tensor<string, []>("custom")];
            tensor<int32, [4]> input_29_pad_0 = const()[name = tensor<string, []>("input_29_pad_0"), val = tensor<int32, [4]>([0, 0, 0, 0])];
            tensor<fp16, [16, 1280, 1, 1]> layers_1_self_attn_o_proj_loraA_weight_to_fp16 = const()[name = tensor<string, []>("layers_1_self_attn_o_proj_loraA_weight_to_fp16"), val = tensor<fp16, [16, 1280, 1, 1]>(BLOBFILE(path = tensor<string, []>("@model_path/weights/weight.bin"), offset = tensor<uint64, []>(28812224)))];
            tensor<fp16, [1, 16, 1, 1500]> input_29_cast_fp16 = conv(dilations = var_540, groups = var_406, pad = input_29_pad_0, pad_type = input_29_pad_type_0, strides = var_538, weight = layers_1_self_attn_o_proj_loraA_weight_to_fp16, x = input_27_cast_fp16)[name = tensor<string, []>("input_29_cast_fp16")];
            tensor<int32, [2]> var_544 = const()[name = tensor<string, []>("op_544"), val = tensor<int32, [2]>([1, 1])];
            tensor<int32, [2]> var_546 = const()[name = tensor<string, []>("op_546"), val = tensor<int32, [2]>([1, 1])];
            tensor<string, []> lora_out_37_pad_type_0 = const()[name = tensor<string, []>("lora_out_37_pad_type_0"), val = tensor<string, []>("custom")];
            tensor<int32, [4]> lora_out_37_pad_0 = const()[name = tensor<string, []>("lora_out_37_pad_0"), val = tensor<int32, [4]>([0, 0, 0, 0])];
            tensor<fp16, [1280, 16, 1, 1]> lora_out_39_weight_0_to_fp16 = const()[name = tensor<string, []>("lora_out_39_weight_0_to_fp16"), val = tensor<fp16, [1280, 16, 1, 1]>(BLOBFILE(path = tensor<string, []>("@model_path/weights/weight.bin"), offset = tensor<uint64, []>(28853248)))];
            tensor<fp16, [1, 1280, 1, 1500]> lora_out_39_cast_fp16 = conv(bias = obj_1_mean_0_to_fp16, dilations = var_546, groups = var_406, pad = lora_out_37_pad_0, pad_type = lora_out_37_pad_type_0, strides = var_544, weight = lora_out_39_weight_0_to_fp16, x = input_29_cast_fp16)[name = tensor<string, []>("lora_out_39_cast_fp16")];
            tensor<fp16, [1, 1280, 1, 1500]> obj_7_cast_fp16 = add(x = pretrained_out_19_cast_fp16, y = lora_out_39_cast_fp16)[name = tensor<string, []>("obj_7_cast_fp16")];
            tensor<fp16, [1, 1280, 1, 1500]> inputs_7_cast_fp16 = add(x = inputs_5_cast_fp16, y = obj_7_cast_fp16)[name = tensor<string, []>("inputs_7_cast_fp16")];
            tensor<int32, [1]> var_555 = const()[name = tensor<string, []>("op_555"), val = tensor<int32, [1]>([1])];
            tensor<fp16, [1, 1, 1, 1500]> channels_mean_7_cast_fp16 = reduce_mean(axes = var_555, keep_dims = var_407, x = inputs_7_cast_fp16)[name = tensor<string, []>("channels_mean_7_cast_fp16")];
            tensor<fp16, [1, 1280, 1, 1500]> zero_mean_7_cast_fp16 = sub(x = inputs_7_cast_fp16, y = channels_mean_7_cast_fp16)[name = tensor<string, []>("zero_mean_7_cast_fp16")];
            tensor<fp16, [1, 1280, 1, 1500]> zero_mean_sq_7_cast_fp16 = mul(x = zero_mean_7_cast_fp16, y = zero_mean_7_cast_fp16)[name = tensor<string, []>("zero_mean_sq_7_cast_fp16")];
            tensor<int32, [1]> var_559 = const()[name = tensor<string, []>("op_559"), val = tensor<int32, [1]>([1])];
            tensor<fp16, [1, 1, 1, 1500]> var_560_cast_fp16 = reduce_mean(axes = var_559, keep_dims = var_407, x = zero_mean_sq_7_cast_fp16)[name = tensor<string, []>("op_560_cast_fp16")];
            tensor<fp16, []> var_561_to_fp16 = const()[name = tensor<string, []>("op_561_to_fp16"), val = tensor<fp16, []>(0x1.5p-17)];
            tensor<fp16, [1, 1, 1, 1500]> var_562_cast_fp16 = add(x = var_560_cast_fp16, y = var_561_to_fp16)[name = tensor<string, []>("op_562_cast_fp16")];
            tensor<fp32, []> denom_7_epsilon_0 = const()[name = tensor<string, []>("denom_7_epsilon_0"), val = tensor<fp32, []>(0x1.197998p-40)];
            tensor<fp16, [1, 1, 1, 1500]> denom_7_cast_fp16 = rsqrt(epsilon = denom_7_epsilon_0, x = var_562_cast_fp16)[name = tensor<string, []>("denom_7_cast_fp16")];
            tensor<fp16, [1, 1280, 1, 1500]> out_7_cast_fp16 = mul(x = zero_mean_7_cast_fp16, y = denom_7_cast_fp16)[name = tensor<string, []>("out_7_cast_fp16")];
            tensor<fp16, [1280]> input_31_gamma_0_to_fp16 = const()[name = tensor<string, []>("input_31_gamma_0_to_fp16"), val = tensor<fp16, [1280]>(BLOBFILE(path = tensor<string, []>("@model_path/weights/weight.bin"), offset = tensor<uint64, []>(28894272)))];
            tensor<fp16, [1280]> input_31_beta_0_to_fp16 = const()[name = tensor<string, []>("input_31_beta_0_to_fp16"), val = tensor<fp16, [1280]>(BLOBFILE(path = tensor<string, []>("@model_path/weights/weight.bin"), offset = tensor<uint64, []>(28896896)))];
            tensor<fp16, []> input_31_epsilon_0_to_fp16 = const()[name = tensor<string, []>("input_31_epsilon_0_to_fp16"), val = tensor<fp16, []>(0x1.5p-17)];
            tensor<fp16, [1, 1280, 1, 1500]> input_31_cast_fp16 = batch_norm(beta = input_31_beta_0_to_fp16, epsilon = input_31_epsilon_0_to_fp16, gamma = input_31_gamma_0_to_fp16, mean = obj_1_mean_0_to_fp16, variance = obj_1_variance_0_to_fp16, x = out_7_cast_fp16)[name = tensor<string, []>("input_31_cast_fp16")];
            tensor<int32, [2]> var_576 = const()[name = tensor<string, []>("op_576"), val = tensor<int32, [2]>([1, 1])];
            tensor<int32, [2]> var_578 = const()[name = tensor<string, []>("op_578"), val = tensor<int32, [2]>([1, 1])];
            tensor<string, []> pretrained_out_21_pad_type_0 = const()[name = tensor<string, []>("pretrained_out_21_pad_type_0"), val = tensor<string, []>("custom")];
            tensor<int32, [4]> pretrained_out_21_pad_0 = const()[name = tensor<string, []>("pretrained_out_21_pad_0"), val = tensor<int32, [4]>([0, 0, 0, 0])];
            tensor<fp16, [5120, 1280, 1, 1]> layers_1_fc1_pretrained_weight_to_fp16_palettized = constexpr_lut_to_dense()[indices = tensor<uint8, [3276800]>(BLOBFILE(path = tensor<string, []>("@model_path/weights/weight.bin"), offset = tensor<uint64, []>(28899520))), lut = tensor<fp16, [16]>(BLOBFILE(path = tensor<string, []>("@model_path/weights/weight.bin"), offset = tensor<uint64, []>(32176384))), name = tensor<string, []>("layers_1_fc1_pretrained_weight_to_fp16_palettized"), shape = tensor<uint32, [4]>([5120, 1280, 1, 1])];
            tensor<fp16, [5120]> layers_1_fc1_pretrained_bias_to_fp16 = const()[name = tensor<string, []>("layers_1_fc1_pretrained_bias_to_fp16"), val = tensor<fp16, [5120]>(BLOBFILE(path = tensor<string, []>("@model_path/weights/weight.bin"), offset = tensor<uint64, []>(32176512)))];
            tensor<fp16, [1, 5120, 1, 1500]> pretrained_out_21_cast_fp16 = conv(bias = layers_1_fc1_pretrained_bias_to_fp16, dilations = var_578, groups = var_406, pad = pretrained_out_21_pad_0, pad_type = pretrained_out_21_pad_type_0, strides = var_576, weight = layers_1_fc1_pretrained_weight_to_fp16_palettized, x = input_31_cast_fp16)[name = tensor<string, []>("pretrained_out_21_cast_fp16")];
            tensor<int32, [2]> var_582 = const()[name = tensor<string, []>("op_582"), val = tensor<int32, [2]>([1, 1])];
            tensor<int32, [2]> var_584 = const()[name = tensor<string, []>("op_584"), val = tensor<int32, [2]>([1, 1])];
            tensor<string, []> input_33_pad_type_0 = const()[name = tensor<string, []>("input_33_pad_type_0"), val = tensor<string, []>("custom")];
            tensor<int32, [4]> input_33_pad_0 = const()[name = tensor<string, []>("input_33_pad_0"), val = tensor<int32, [4]>([0, 0, 0, 0])];
            tensor<fp16, [16, 1280, 1, 1]> layers_1_fc1_loraA_weight_to_fp16 = const()[name = tensor<string, []>("layers_1_fc1_loraA_weight_to_fp16"), val = tensor<fp16, [16, 1280, 1, 1]>(BLOBFILE(path = tensor<string, []>("@model_path/weights/weight.bin"), offset = tensor<uint64, []>(32186816)))];
            tensor<fp16, [1, 16, 1, 1500]> input_33_cast_fp16 = conv(dilations = var_584, groups = var_406, pad = input_33_pad_0, pad_type = input_33_pad_type_0, strides = var_582, weight = layers_1_fc1_loraA_weight_to_fp16, x = input_31_cast_fp16)[name = tensor<string, []>("input_33_cast_fp16")];
            tensor<int32, [2]> var_588 = const()[name = tensor<string, []>("op_588"), val = tensor<int32, [2]>([1, 1])];
            tensor<int32, [2]> var_590 = const()[name = tensor<string, []>("op_590"), val = tensor<int32, [2]>([1, 1])];
            tensor<string, []> lora_out_41_pad_type_0 = const()[name = tensor<string, []>("lora_out_41_pad_type_0"), val = tensor<string, []>("custom")];
            tensor<int32, [4]> lora_out_41_pad_0 = const()[name = tensor<string, []>("lora_out_41_pad_0"), val = tensor<int32, [4]>([0, 0, 0, 0])];
            tensor<fp16, [5120, 16, 1, 1]> lora_out_43_weight_0_to_fp16 = const()[name = tensor<string, []>("lora_out_43_weight_0_to_fp16"), val = tensor<fp16, [5120, 16, 1, 1]>(BLOBFILE(path = tensor<string, []>("@model_path/weights/weight.bin"), offset = tensor<uint64, []>(32227840)))];
            tensor<fp16, [1, 5120, 1, 1500]> lora_out_43_cast_fp16 = conv(bias = lora_out_19_bias_0_to_fp16, dilations = var_590, groups = var_406, pad = lora_out_41_pad_0, pad_type = lora_out_41_pad_type_0, strides = var_588, weight = lora_out_43_weight_0_to_fp16, x = input_33_cast_fp16)[name = tensor<string, []>("lora_out_43_cast_fp16")];
            tensor<fp16, [1, 5120, 1, 1500]> input_35_cast_fp16 = add(x = pretrained_out_21_cast_fp16, y = lora_out_43_cast_fp16)[name = tensor<string, []>("input_35_cast_fp16")];
            tensor<string, []> input_37_mode_0 = const()[name = tensor<string, []>("input_37_mode_0"), val = tensor<string, []>("EXACT")];
            tensor<fp16, [1, 5120, 1, 1500]> input_37_cast_fp16 = gelu(mode = input_37_mode_0, x = input_35_cast_fp16)[name = tensor<string, []>("input_37_cast_fp16")];
            tensor<int32, [2]> var_602 = const()[name = tensor<string, []>("op_602"), val = tensor<int32, [2]>([1, 1])];
            tensor<int32, [2]> var_604 = const()[name = tensor<string, []>("op_604"), val = tensor<int32, [2]>([1, 1])];
            tensor<string, []> pretrained_out_23_pad_type_0 = const()[name = tensor<string, []>("pretrained_out_23_pad_type_0"), val = tensor<string, []>("custom")];
            tensor<int32, [4]> pretrained_out_23_pad_0 = const()[name = tensor<string, []>("pretrained_out_23_pad_0"), val = tensor<int32, [4]>([0, 0, 0, 0])];
            tensor<fp16, [1280, 5120, 1, 1]> layers_1_fc2_pretrained_weight_to_fp16_palettized = constexpr_lut_to_dense()[indices = tensor<uint8, [3276800]>(BLOBFILE(path = tensor<string, []>("@model_path/weights/weight.bin"), offset = tensor<uint64, []>(32391744))), lut = tensor<fp16, [16]>(BLOBFILE(path = tensor<string, []>("@model_path/weights/weight.bin"), offset = tensor<uint64, []>(35668608))), name = tensor<string, []>("layers_1_fc2_pretrained_weight_to_fp16_palettized"), shape = tensor<uint32, [4]>([1280, 5120, 1, 1])];
            tensor<fp16, [1280]> layers_1_fc2_pretrained_bias_to_fp16 = const()[name = tensor<string, []>("layers_1_fc2_pretrained_bias_to_fp16"), val = tensor<fp16, [1280]>(BLOBFILE(path = tensor<string, []>("@model_path/weights/weight.bin"), offset = tensor<uint64, []>(35668736)))];
            tensor<fp16, [1, 1280, 1, 1500]> pretrained_out_23_cast_fp16 = conv(bias = layers_1_fc2_pretrained_bias_to_fp16, dilations = var_604, groups = var_406, pad = pretrained_out_23_pad_0, pad_type = pretrained_out_23_pad_type_0, strides = var_602, weight = layers_1_fc2_pretrained_weight_to_fp16_palettized, x = input_37_cast_fp16)[name = tensor<string, []>("pretrained_out_23_cast_fp16")];
            tensor<int32, [2]> var_608 = const()[name = tensor<string, []>("op_608"), val = tensor<int32, [2]>([1, 1])];
            tensor<int32, [2]> var_610 = const()[name = tensor<string, []>("op_610"), val = tensor<int32, [2]>([1, 1])];
            tensor<string, []> input_39_pad_type_0 = const()[name = tensor<string, []>("input_39_pad_type_0"), val = tensor<string, []>("custom")];
            tensor<int32, [4]> input_39_pad_0 = const()[name = tensor<string, []>("input_39_pad_0"), val = tensor<int32, [4]>([0, 0, 0, 0])];
            tensor<fp16, [16, 5120, 1, 1]> layers_1_fc2_loraA_weight_to_fp16 = const()[name = tensor<string, []>("layers_1_fc2_loraA_weight_to_fp16"), val = tensor<fp16, [16, 5120, 1, 1]>(BLOBFILE(path = tensor<string, []>("@model_path/weights/weight.bin"), offset = tensor<uint64, []>(35671360)))];
            tensor<fp16, [1, 16, 1, 1500]> input_39_cast_fp16 = conv(dilations = var_610, groups = var_406, pad = input_39_pad_0, pad_type = input_39_pad_type_0, strides = var_608, weight = layers_1_fc2_loraA_weight_to_fp16, x = input_37_cast_fp16)[name = tensor<string, []>("input_39_cast_fp16")];
            tensor<int32, [2]> var_614 = const()[name = tensor<string, []>("op_614"), val = tensor<int32, [2]>([1, 1])];
            tensor<int32, [2]> var_616 = const()[name = tensor<string, []>("op_616"), val = tensor<int32, [2]>([1, 1])];
            tensor<string, []> lora_out_45_pad_type_0 = const()[name = tensor<string, []>("lora_out_45_pad_type_0"), val = tensor<string, []>("custom")];
            tensor<int32, [4]> lora_out_45_pad_0 = const()[name = tensor<string, []>("lora_out_45_pad_0"), val = tensor<int32, [4]>([0, 0, 0, 0])];
            tensor<fp16, [1280, 16, 1, 1]> lora_out_47_weight_0_to_fp16 = const()[name = tensor<string, []>("lora_out_47_weight_0_to_fp16"), val = tensor<fp16, [1280, 16, 1, 1]>(BLOBFILE(path = tensor<string, []>("@model_path/weights/weight.bin"), offset = tensor<uint64, []>(35835264)))];
            tensor<fp16, [1, 1280, 1, 1500]> lora_out_47_cast_fp16 = conv(bias = obj_1_mean_0_to_fp16, dilations = var_616, groups = var_406, pad = lora_out_45_pad_0, pad_type = lora_out_45_pad_type_0, strides = var_614, weight = lora_out_47_weight_0_to_fp16, x = input_39_cast_fp16)[name = tensor<string, []>("lora_out_47_cast_fp16")];
            tensor<fp16, [1, 1280, 1, 1500]> hidden_states_7_cast_fp16 = add(x = pretrained_out_23_cast_fp16, y = lora_out_47_cast_fp16)[name = tensor<string, []>("hidden_states_7_cast_fp16")];
            tensor<fp16, [1, 1280, 1, 1500]> inputs_9_cast_fp16 = add(x = inputs_7_cast_fp16, y = hidden_states_7_cast_fp16)[name = tensor<string, []>("inputs_9_cast_fp16")];
            tensor<int32, []> var_630 = const()[name = tensor<string, []>("op_630"), val = tensor<int32, []>(3)];
            tensor<int32, []> var_632 = const()[name = tensor<string, []>("op_632"), val = tensor<int32, []>(1)];
            tensor<bool, []> var_633 = const()[name = tensor<string, []>("op_633"), val = tensor<bool, []>(true)];
            tensor<int32, [1]> var_643 = const()[name = tensor<string, []>("op_643"), val = tensor<int32, [1]>([1])];
            tensor<fp16, [1, 1, 1, 1500]> channels_mean_9_cast_fp16 = reduce_mean(axes = var_643, keep_dims = var_633, x = inputs_9_cast_fp16)[name = tensor<string, []>("channels_mean_9_cast_fp16")];
            tensor<fp16, [1, 1280, 1, 1500]> zero_mean_9_cast_fp16 = sub(x = inputs_9_cast_fp16, y = channels_mean_9_cast_fp16)[name = tensor<string, []>("zero_mean_9_cast_fp16")];
            tensor<fp16, [1, 1280, 1, 1500]> zero_mean_sq_9_cast_fp16 = mul(x = zero_mean_9_cast_fp16, y = zero_mean_9_cast_fp16)[name = tensor<string, []>("zero_mean_sq_9_cast_fp16")];
            tensor<int32, [1]> var_647 = const()[name = tensor<string, []>("op_647"), val = tensor<int32, [1]>([1])];
            tensor<fp16, [1, 1, 1, 1500]> var_648_cast_fp16 = reduce_mean(axes = var_647, keep_dims = var_633, x = zero_mean_sq_9_cast_fp16)[name = tensor<string, []>("op_648_cast_fp16")];
            tensor<fp16, []> var_649_to_fp16 = const()[name = tensor<string, []>("op_649_to_fp16"), val = tensor<fp16, []>(0x1.5p-17)];
            tensor<fp16, [1, 1, 1, 1500]> var_650_cast_fp16 = add(x = var_648_cast_fp16, y = var_649_to_fp16)[name = tensor<string, []>("op_650_cast_fp16")];
            tensor<fp32, []> denom_9_epsilon_0 = const()[name = tensor<string, []>("denom_9_epsilon_0"), val = tensor<fp32, []>(0x1.197998p-40)];
            tensor<fp16, [1, 1, 1, 1500]> denom_9_cast_fp16 = rsqrt(epsilon = denom_9_epsilon_0, x = var_650_cast_fp16)[name = tensor<string, []>("denom_9_cast_fp16")];
            tensor<fp16, [1, 1280, 1, 1500]> out_9_cast_fp16 = mul(x = zero_mean_9_cast_fp16, y = denom_9_cast_fp16)[name = tensor<string, []>("out_9_cast_fp16")];
            tensor<fp16, [1280]> obj_9_gamma_0_to_fp16 = const()[name = tensor<string, []>("obj_9_gamma_0_to_fp16"), val = tensor<fp16, [1280]>(BLOBFILE(path = tensor<string, []>("@model_path/weights/weight.bin"), offset = tensor<uint64, []>(35876288)))];
            tensor<fp16, [1280]> obj_9_beta_0_to_fp16 = const()[name = tensor<string, []>("obj_9_beta_0_to_fp16"), val = tensor<fp16, [1280]>(BLOBFILE(path = tensor<string, []>("@model_path/weights/weight.bin"), offset = tensor<uint64, []>(35878912)))];
            tensor<fp16, []> obj_9_epsilon_0_to_fp16 = const()[name = tensor<string, []>("obj_9_epsilon_0_to_fp16"), val = tensor<fp16, []>(0x1.5p-17)];
            tensor<fp16, [1, 1280, 1, 1500]> obj_9_cast_fp16 = batch_norm(beta = obj_9_beta_0_to_fp16, epsilon = obj_9_epsilon_0_to_fp16, gamma = obj_9_gamma_0_to_fp16, mean = obj_1_mean_0_to_fp16, variance = obj_1_variance_0_to_fp16, x = out_9_cast_fp16)[name = tensor<string, []>("obj_9_cast_fp16")];
            tensor<int32, [2]> var_668 = const()[name = tensor<string, []>("op_668"), val = tensor<int32, [2]>([1, 1])];
            tensor<int32, [2]> var_670 = const()[name = tensor<string, []>("op_670"), val = tensor<int32, [2]>([1, 1])];
            tensor<string, []> pretrained_out_25_pad_type_0 = const()[name = tensor<string, []>("pretrained_out_25_pad_type_0"), val = tensor<string, []>("custom")];
            tensor<int32, [4]> pretrained_out_25_pad_0 = const()[name = tensor<string, []>("pretrained_out_25_pad_0"), val = tensor<int32, [4]>([0, 0, 0, 0])];
            tensor<fp16, [1280, 1280, 1, 1]> layers_2_self_attn_q_proj_pretrained_weight_to_fp16_palettized = constexpr_lut_to_dense()[indices = tensor<uint8, [819200]>(BLOBFILE(path = tensor<string, []>("@model_path/weights/weight.bin"), offset = tensor<uint64, []>(35881536))), lut = tensor<fp16, [16]>(BLOBFILE(path = tensor<string, []>("@model_path/weights/weight.bin"), offset = tensor<uint64, []>(36700800))), name = tensor<string, []>("layers_2_self_attn_q_proj_pretrained_weight_to_fp16_palettized"), shape = tensor<uint32, [4]>([1280, 1280, 1, 1])];
            tensor<fp16, [1280]> layers_2_self_attn_q_proj_pretrained_bias_to_fp16 = const()[name = tensor<string, []>("layers_2_self_attn_q_proj_pretrained_bias_to_fp16"), val = tensor<fp16, [1280]>(BLOBFILE(path = tensor<string, []>("@model_path/weights/weight.bin"), offset = tensor<uint64, []>(36700928)))];
            tensor<fp16, [1, 1280, 1, 1500]> pretrained_out_25_cast_fp16 = conv(bias = layers_2_self_attn_q_proj_pretrained_bias_to_fp16, dilations = var_670, groups = var_632, pad = pretrained_out_25_pad_0, pad_type = pretrained_out_25_pad_type_0, strides = var_668, weight = layers_2_self_attn_q_proj_pretrained_weight_to_fp16_palettized, x = obj_9_cast_fp16)[name = tensor<string, []>("pretrained_out_25_cast_fp16")];
            tensor<int32, [2]> var_674 = const()[name = tensor<string, []>("op_674"), val = tensor<int32, [2]>([1, 1])];
            tensor<int32, [2]> var_676 = const()[name = tensor<string, []>("op_676"), val = tensor<int32, [2]>([1, 1])];
            tensor<string, []> input_41_pad_type_0 = const()[name = tensor<string, []>("input_41_pad_type_0"), val = tensor<string, []>("custom")];
            tensor<int32, [4]> input_41_pad_0 = const()[name = tensor<string, []>("input_41_pad_0"), val = tensor<int32, [4]>([0, 0, 0, 0])];
            tensor<fp16, [16, 1280, 1, 1]> layers_2_self_attn_q_proj_loraA_weight_to_fp16 = const()[name = tensor<string, []>("layers_2_self_attn_q_proj_loraA_weight_to_fp16"), val = tensor<fp16, [16, 1280, 1, 1]>(BLOBFILE(path = tensor<string, []>("@model_path/weights/weight.bin"), offset = tensor<uint64, []>(36703552)))];
            tensor<fp16, [1, 16, 1, 1500]> input_41_cast_fp16 = conv(dilations = var_676, groups = var_632, pad = input_41_pad_0, pad_type = input_41_pad_type_0, strides = var_674, weight = layers_2_self_attn_q_proj_loraA_weight_to_fp16, x = obj_9_cast_fp16)[name = tensor<string, []>("input_41_cast_fp16")];
            tensor<int32, [2]> var_680 = const()[name = tensor<string, []>("op_680"), val = tensor<int32, [2]>([1, 1])];
            tensor<int32, [2]> var_682 = const()[name = tensor<string, []>("op_682"), val = tensor<int32, [2]>([1, 1])];
            tensor<string, []> lora_out_49_pad_type_0 = const()[name = tensor<string, []>("lora_out_49_pad_type_0"), val = tensor<string, []>("custom")];
            tensor<int32, [4]> lora_out_49_pad_0 = const()[name = tensor<string, []>("lora_out_49_pad_0"), val = tensor<int32, [4]>([0, 0, 0, 0])];
            tensor<fp16, [1280, 16, 1, 1]> lora_out_51_weight_0_to_fp16 = const()[name = tensor<string, []>("lora_out_51_weight_0_to_fp16"), val = tensor<fp16, [1280, 16, 1, 1]>(BLOBFILE(path = tensor<string, []>("@model_path/weights/weight.bin"), offset = tensor<uint64, []>(36744576)))];
            tensor<fp16, [1, 1280, 1, 1500]> lora_out_51_cast_fp16 = conv(bias = obj_1_mean_0_to_fp16, dilations = var_682, groups = var_632, pad = lora_out_49_pad_0, pad_type = lora_out_49_pad_type_0, strides = var_680, weight = lora_out_51_weight_0_to_fp16, x = input_41_cast_fp16)[name = tensor<string, []>("lora_out_51_cast_fp16")];
            tensor<fp16, [1, 1280, 1, 1500]> query_5_cast_fp16 = add(x = pretrained_out_25_cast_fp16, y = lora_out_51_cast_fp16)[name = tensor<string, []>("query_5_cast_fp16")];
            tensor<int32, [2]> var_692 = const()[name = tensor<string, []>("op_692"), val = tensor<int32, [2]>([1, 1])];
            tensor<int32, [2]> var_694 = const()[name = tensor<string, []>("op_694"), val = tensor<int32, [2]>([1, 1])];
            tensor<string, []> pretrained_out_27_pad_type_0 = const()[name = tensor<string, []>("pretrained_out_27_pad_type_0"), val = tensor<string, []>("custom")];
            tensor<int32, [4]> pretrained_out_27_pad_0 = const()[name = tensor<string, []>("pretrained_out_27_pad_0"), val = tensor<int32, [4]>([0, 0, 0, 0])];
            tensor<fp16, [1280, 1280, 1, 1]> layers_2_self_attn_k_proj_pretrained_weight_to_fp16_palettized = constexpr_lut_to_dense()[indices = tensor<uint8, [819200]>(BLOBFILE(path = tensor<string, []>("@model_path/weights/weight.bin"), offset = tensor<uint64, []>(36785600))), lut = tensor<fp16, [16]>(BLOBFILE(path = tensor<string, []>("@model_path/weights/weight.bin"), offset = tensor<uint64, []>(37604864))), name = tensor<string, []>("layers_2_self_attn_k_proj_pretrained_weight_to_fp16_palettized"), shape = tensor<uint32, [4]>([1280, 1280, 1, 1])];
            tensor<fp16, [1, 1280, 1, 1500]> pretrained_out_27_cast_fp16 = conv(dilations = var_694, groups = var_632, pad = pretrained_out_27_pad_0, pad_type = pretrained_out_27_pad_type_0, strides = var_692, weight = layers_2_self_attn_k_proj_pretrained_weight_to_fp16_palettized, x = obj_9_cast_fp16)[name = tensor<string, []>("pretrained_out_27_cast_fp16")];
            tensor<int32, [2]> var_698 = const()[name = tensor<string, []>("op_698"), val = tensor<int32, [2]>([1, 1])];
            tensor<int32, [2]> var_700 = const()[name = tensor<string, []>("op_700"), val = tensor<int32, [2]>([1, 1])];
            tensor<string, []> input_43_pad_type_0 = const()[name = tensor<string, []>("input_43_pad_type_0"), val = tensor<string, []>("custom")];
            tensor<int32, [4]> input_43_pad_0 = const()[name = tensor<string, []>("input_43_pad_0"), val = tensor<int32, [4]>([0, 0, 0, 0])];
            tensor<fp16, [16, 1280, 1, 1]> layers_2_self_attn_k_proj_loraA_weight_to_fp16 = const()[name = tensor<string, []>("layers_2_self_attn_k_proj_loraA_weight_to_fp16"), val = tensor<fp16, [16, 1280, 1, 1]>(BLOBFILE(path = tensor<string, []>("@model_path/weights/weight.bin"), offset = tensor<uint64, []>(37604992)))];
            tensor<fp16, [1, 16, 1, 1500]> input_43_cast_fp16 = conv(dilations = var_700, groups = var_632, pad = input_43_pad_0, pad_type = input_43_pad_type_0, strides = var_698, weight = layers_2_self_attn_k_proj_loraA_weight_to_fp16, x = obj_9_cast_fp16)[name = tensor<string, []>("input_43_cast_fp16")];
            tensor<int32, [2]> var_704 = const()[name = tensor<string, []>("op_704"), val = tensor<int32, [2]>([1, 1])];
            tensor<int32, [2]> var_706 = const()[name = tensor<string, []>("op_706"), val = tensor<int32, [2]>([1, 1])];
            tensor<string, []> lora_out_53_pad_type_0 = const()[name = tensor<string, []>("lora_out_53_pad_type_0"), val = tensor<string, []>("custom")];
            tensor<int32, [4]> lora_out_53_pad_0 = const()[name = tensor<string, []>("lora_out_53_pad_0"), val = tensor<int32, [4]>([0, 0, 0, 0])];
            tensor<fp16, [1280, 16, 1, 1]> lora_out_55_weight_0_to_fp16 = const()[name = tensor<string, []>("lora_out_55_weight_0_to_fp16"), val = tensor<fp16, [1280, 16, 1, 1]>(BLOBFILE(path = tensor<string, []>("@model_path/weights/weight.bin"), offset = tensor<uint64, []>(37646016)))];
            tensor<fp16, [1, 1280, 1, 1500]> lora_out_55_cast_fp16 = conv(bias = obj_1_mean_0_to_fp16, dilations = var_706, groups = var_632, pad = lora_out_53_pad_0, pad_type = lora_out_53_pad_type_0, strides = var_704, weight = lora_out_55_weight_0_to_fp16, x = input_43_cast_fp16)[name = tensor<string, []>("lora_out_55_cast_fp16")];
            tensor<fp16, [1, 1280, 1, 1500]> key_5_cast_fp16 = add(x = pretrained_out_27_cast_fp16, y = lora_out_55_cast_fp16)[name = tensor<string, []>("key_5_cast_fp16")];
            tensor<int32, [2]> var_717 = const()[name = tensor<string, []>("op_717"), val = tensor<int32, [2]>([1, 1])];
            tensor<int32, [2]> var_719 = const()[name = tensor<string, []>("op_719"), val = tensor<int32, [2]>([1, 1])];
            tensor<string, []> pretrained_out_29_pad_type_0 = const()[name = tensor<string, []>("pretrained_out_29_pad_type_0"), val = tensor<string, []>("custom")];
            tensor<int32, [4]> pretrained_out_29_pad_0 = const()[name = tensor<string, []>("pretrained_out_29_pad_0"), val = tensor<int32, [4]>([0, 0, 0, 0])];
            tensor<fp16, [1280, 1280, 1, 1]> layers_2_self_attn_v_proj_pretrained_weight_to_fp16_palettized = constexpr_lut_to_dense()[indices = tensor<uint8, [819200]>(BLOBFILE(path = tensor<string, []>("@model_path/weights/weight.bin"), offset = tensor<uint64, []>(37687040))), lut = tensor<fp16, [16]>(BLOBFILE(path = tensor<string, []>("@model_path/weights/weight.bin"), offset = tensor<uint64, []>(38506304))), name = tensor<string, []>("layers_2_self_attn_v_proj_pretrained_weight_to_fp16_palettized"), shape = tensor<uint32, [4]>([1280, 1280, 1, 1])];
            tensor<fp16, [1280]> layers_2_self_attn_v_proj_pretrained_bias_to_fp16 = const()[name = tensor<string, []>("layers_2_self_attn_v_proj_pretrained_bias_to_fp16"), val = tensor<fp16, [1280]>(BLOBFILE(path = tensor<string, []>("@model_path/weights/weight.bin"), offset = tensor<uint64, []>(38506432)))];
            tensor<fp16, [1, 1280, 1, 1500]> pretrained_out_29_cast_fp16 = conv(bias = layers_2_self_attn_v_proj_pretrained_bias_to_fp16, dilations = var_719, groups = var_632, pad = pretrained_out_29_pad_0, pad_type = pretrained_out_29_pad_type_0, strides = var_717, weight = layers_2_self_attn_v_proj_pretrained_weight_to_fp16_palettized, x = obj_9_cast_fp16)[name = tensor<string, []>("pretrained_out_29_cast_fp16")];
            tensor<int32, [2]> var_723 = const()[name = tensor<string, []>("op_723"), val = tensor<int32, [2]>([1, 1])];
            tensor<int32, [2]> var_725 = const()[name = tensor<string, []>("op_725"), val = tensor<int32, [2]>([1, 1])];
            tensor<string, []> input_45_pad_type_0 = const()[name = tensor<string, []>("input_45_pad_type_0"), val = tensor<string, []>("custom")];
            tensor<int32, [4]> input_45_pad_0 = const()[name = tensor<string, []>("input_45_pad_0"), val = tensor<int32, [4]>([0, 0, 0, 0])];
            tensor<fp16, [16, 1280, 1, 1]> layers_2_self_attn_v_proj_loraA_weight_to_fp16 = const()[name = tensor<string, []>("layers_2_self_attn_v_proj_loraA_weight_to_fp16"), val = tensor<fp16, [16, 1280, 1, 1]>(BLOBFILE(path = tensor<string, []>("@model_path/weights/weight.bin"), offset = tensor<uint64, []>(38509056)))];
            tensor<fp16, [1, 16, 1, 1500]> input_45_cast_fp16 = conv(dilations = var_725, groups = var_632, pad = input_45_pad_0, pad_type = input_45_pad_type_0, strides = var_723, weight = layers_2_self_attn_v_proj_loraA_weight_to_fp16, x = obj_9_cast_fp16)[name = tensor<string, []>("input_45_cast_fp16")];
            tensor<int32, [2]> var_729 = const()[name = tensor<string, []>("op_729"), val = tensor<int32, [2]>([1, 1])];
            tensor<int32, [2]> var_731 = const()[name = tensor<string, []>("op_731"), val = tensor<int32, [2]>([1, 1])];
            tensor<string, []> lora_out_57_pad_type_0 = const()[name = tensor<string, []>("lora_out_57_pad_type_0"), val = tensor<string, []>("custom")];
            tensor<int32, [4]> lora_out_57_pad_0 = const()[name = tensor<string, []>("lora_out_57_pad_0"), val = tensor<int32, [4]>([0, 0, 0, 0])];
            tensor<fp16, [1280, 16, 1, 1]> lora_out_59_weight_0_to_fp16 = const()[name = tensor<string, []>("lora_out_59_weight_0_to_fp16"), val = tensor<fp16, [1280, 16, 1, 1]>(BLOBFILE(path = tensor<string, []>("@model_path/weights/weight.bin"), offset = tensor<uint64, []>(38550080)))];
            tensor<fp16, [1, 1280, 1, 1500]> lora_out_59_cast_fp16 = conv(bias = obj_1_mean_0_to_fp16, dilations = var_731, groups = var_632, pad = lora_out_57_pad_0, pad_type = lora_out_57_pad_type_0, strides = var_729, weight = lora_out_59_weight_0_to_fp16, x = input_45_cast_fp16)[name = tensor<string, []>("lora_out_59_cast_fp16")];
            tensor<fp16, [1, 1280, 1, 1500]> value_5_cast_fp16 = add(x = pretrained_out_29_cast_fp16, y = lora_out_59_cast_fp16)[name = tensor<string, []>("value_5_cast_fp16")];
            tensor<int32, [4]> var_738 = const()[name = tensor<string, []>("op_738"), val = tensor<int32, [4]>([1, 20, 64, -1])];
            tensor<fp16, [1, 20, 64, 1500]> var_739_cast_fp16 = reshape(shape = var_738, x = query_5_cast_fp16)[name = tensor<string, []>("op_739_cast_fp16")];
            tensor<fp16, []> var_740_to_fp16 = const()[name = tensor<string, []>("op_740_to_fp16"), val = tensor<fp16, []>(0x1p-3)];
            tensor<fp16, [1, 20, 64, 1500]> var_741_cast_fp16 = mul(x = var_739_cast_fp16, y = var_740_to_fp16)[name = tensor<string, []>("op_741_cast_fp16")];
            tensor<int32, [4]> var_742 = const()[name = tensor<string, []>("op_742"), val = tensor<int32, [4]>([1, 20, 64, -1])];
            tensor<fp16, [1, 20, 64, 1500]> var_743_cast_fp16 = reshape(shape = var_742, x = key_5_cast_fp16)[name = tensor<string, []>("op_743_cast_fp16")];
            tensor<bool, []> mh_w_5_transpose_x_0 = const()[name = tensor<string, []>("mh_w_5_transpose_x_0"), val = tensor<bool, []>(true)];
            tensor<bool, []> mh_w_5_transpose_y_0 = const()[name = tensor<string, []>("mh_w_5_transpose_y_0"), val = tensor<bool, []>(false)];
            tensor<fp16, [1, 20, 1500, 1500]> mh_w_5_cast_fp16 = matmul(transpose_x = mh_w_5_transpose_x_0, transpose_y = mh_w_5_transpose_y_0, x = var_741_cast_fp16, y = var_743_cast_fp16)[name = tensor<string, []>("mh_w_5_cast_fp16")];
            tensor<fp16, [1, 20, 1500, 1500]> var_746_cast_fp16 = softmax(axis = var_630, x = mh_w_5_cast_fp16)[name = tensor<string, []>("op_746_cast_fp16")];
            tensor<int32, [4]> var_747 = const()[name = tensor<string, []>("op_747"), val = tensor<int32, [4]>([1, 20, 64, -1])];
            tensor<fp16, [1, 20, 64, 1500]> var_748_cast_fp16 = reshape(shape = var_747, x = value_5_cast_fp16)[name = tensor<string, []>("op_748_cast_fp16")];
            tensor<bool, []> attn_5_transpose_x_0 = const()[name = tensor<string, []>("attn_5_transpose_x_0"), val = tensor<bool, []>(false)];
            tensor<bool, []> attn_5_transpose_y_0 = const()[name = tensor<string, []>("attn_5_transpose_y_0"), val = tensor<bool, []>(true)];
            tensor<fp16, [1, 20, 64, 1500]> attn_5_cast_fp16 = matmul(transpose_x = attn_5_transpose_x_0, transpose_y = attn_5_transpose_y_0, x = var_748_cast_fp16, y = var_746_cast_fp16)[name = tensor<string, []>("attn_5_cast_fp16")];
            tensor<int32, [4]> var_751 = const()[name = tensor<string, []>("op_751"), val = tensor<int32, [4]>([1, 1280, 1, -1])];
            tensor<fp16, [1, 1280, 1, 1500]> input_47_cast_fp16 = reshape(shape = var_751, x = attn_5_cast_fp16)[name = tensor<string, []>("input_47_cast_fp16")];
            tensor<int32, [2]> var_758 = const()[name = tensor<string, []>("op_758"), val = tensor<int32, [2]>([1, 1])];
            tensor<int32, [2]> var_760 = const()[name = tensor<string, []>("op_760"), val = tensor<int32, [2]>([1, 1])];
            tensor<string, []> pretrained_out_31_pad_type_0 = const()[name = tensor<string, []>("pretrained_out_31_pad_type_0"), val = tensor<string, []>("custom")];
            tensor<int32, [4]> pretrained_out_31_pad_0 = const()[name = tensor<string, []>("pretrained_out_31_pad_0"), val = tensor<int32, [4]>([0, 0, 0, 0])];
            tensor<fp16, [1280, 1280, 1, 1]> layers_2_self_attn_o_proj_pretrained_weight_to_fp16_palettized = constexpr_lut_to_dense()[indices = tensor<uint8, [819200]>(BLOBFILE(path = tensor<string, []>("@model_path/weights/weight.bin"), offset = tensor<uint64, []>(38591104))), lut = tensor<fp16, [16]>(BLOBFILE(path = tensor<string, []>("@model_path/weights/weight.bin"), offset = tensor<uint64, []>(39410368))), name = tensor<string, []>("layers_2_self_attn_o_proj_pretrained_weight_to_fp16_palettized"), shape = tensor<uint32, [4]>([1280, 1280, 1, 1])];
            tensor<fp16, [1280]> layers_2_self_attn_o_proj_pretrained_bias_to_fp16 = const()[name = tensor<string, []>("layers_2_self_attn_o_proj_pretrained_bias_to_fp16"), val = tensor<fp16, [1280]>(BLOBFILE(path = tensor<string, []>("@model_path/weights/weight.bin"), offset = tensor<uint64, []>(39410496)))];
            tensor<fp16, [1, 1280, 1, 1500]> pretrained_out_31_cast_fp16 = conv(bias = layers_2_self_attn_o_proj_pretrained_bias_to_fp16, dilations = var_760, groups = var_632, pad = pretrained_out_31_pad_0, pad_type = pretrained_out_31_pad_type_0, strides = var_758, weight = layers_2_self_attn_o_proj_pretrained_weight_to_fp16_palettized, x = input_47_cast_fp16)[name = tensor<string, []>("pretrained_out_31_cast_fp16")];
            tensor<int32, [2]> var_764 = const()[name = tensor<string, []>("op_764"), val = tensor<int32, [2]>([1, 1])];
            tensor<int32, [2]> var_766 = const()[name = tensor<string, []>("op_766"), val = tensor<int32, [2]>([1, 1])];
            tensor<string, []> input_49_pad_type_0 = const()[name = tensor<string, []>("input_49_pad_type_0"), val = tensor<string, []>("custom")];
            tensor<int32, [4]> input_49_pad_0 = const()[name = tensor<string, []>("input_49_pad_0"), val = tensor<int32, [4]>([0, 0, 0, 0])];
            tensor<fp16, [16, 1280, 1, 1]> layers_2_self_attn_o_proj_loraA_weight_to_fp16 = const()[name = tensor<string, []>("layers_2_self_attn_o_proj_loraA_weight_to_fp16"), val = tensor<fp16, [16, 1280, 1, 1]>(BLOBFILE(path = tensor<string, []>("@model_path/weights/weight.bin"), offset = tensor<uint64, []>(39413120)))];
            tensor<fp16, [1, 16, 1, 1500]> input_49_cast_fp16 = conv(dilations = var_766, groups = var_632, pad = input_49_pad_0, pad_type = input_49_pad_type_0, strides = var_764, weight = layers_2_self_attn_o_proj_loraA_weight_to_fp16, x = input_47_cast_fp16)[name = tensor<string, []>("input_49_cast_fp16")];
            tensor<int32, [2]> var_770 = const()[name = tensor<string, []>("op_770"), val = tensor<int32, [2]>([1, 1])];
            tensor<int32, [2]> var_772 = const()[name = tensor<string, []>("op_772"), val = tensor<int32, [2]>([1, 1])];
            tensor<string, []> lora_out_61_pad_type_0 = const()[name = tensor<string, []>("lora_out_61_pad_type_0"), val = tensor<string, []>("custom")];
            tensor<int32, [4]> lora_out_61_pad_0 = const()[name = tensor<string, []>("lora_out_61_pad_0"), val = tensor<int32, [4]>([0, 0, 0, 0])];
            tensor<fp16, [1280, 16, 1, 1]> lora_out_63_weight_0_to_fp16 = const()[name = tensor<string, []>("lora_out_63_weight_0_to_fp16"), val = tensor<fp16, [1280, 16, 1, 1]>(BLOBFILE(path = tensor<string, []>("@model_path/weights/weight.bin"), offset = tensor<uint64, []>(39454144)))];
            tensor<fp16, [1, 1280, 1, 1500]> lora_out_63_cast_fp16 = conv(bias = obj_1_mean_0_to_fp16, dilations = var_772, groups = var_632, pad = lora_out_61_pad_0, pad_type = lora_out_61_pad_type_0, strides = var_770, weight = lora_out_63_weight_0_to_fp16, x = input_49_cast_fp16)[name = tensor<string, []>("lora_out_63_cast_fp16")];
            tensor<fp16, [1, 1280, 1, 1500]> obj_11_cast_fp16 = add(x = pretrained_out_31_cast_fp16, y = lora_out_63_cast_fp16)[name = tensor<string, []>("obj_11_cast_fp16")];
            tensor<fp16, [1, 1280, 1, 1500]> inputs_11_cast_fp16 = add(x = inputs_9_cast_fp16, y = obj_11_cast_fp16)[name = tensor<string, []>("inputs_11_cast_fp16")];
            tensor<int32, [1]> var_781 = const()[name = tensor<string, []>("op_781"), val = tensor<int32, [1]>([1])];
            tensor<fp16, [1, 1, 1, 1500]> channels_mean_11_cast_fp16 = reduce_mean(axes = var_781, keep_dims = var_633, x = inputs_11_cast_fp16)[name = tensor<string, []>("channels_mean_11_cast_fp16")];
            tensor<fp16, [1, 1280, 1, 1500]> zero_mean_11_cast_fp16 = sub(x = inputs_11_cast_fp16, y = channels_mean_11_cast_fp16)[name = tensor<string, []>("zero_mean_11_cast_fp16")];
            tensor<fp16, [1, 1280, 1, 1500]> zero_mean_sq_11_cast_fp16 = mul(x = zero_mean_11_cast_fp16, y = zero_mean_11_cast_fp16)[name = tensor<string, []>("zero_mean_sq_11_cast_fp16")];
            tensor<int32, [1]> var_785 = const()[name = tensor<string, []>("op_785"), val = tensor<int32, [1]>([1])];
            tensor<fp16, [1, 1, 1, 1500]> var_786_cast_fp16 = reduce_mean(axes = var_785, keep_dims = var_633, x = zero_mean_sq_11_cast_fp16)[name = tensor<string, []>("op_786_cast_fp16")];
            tensor<fp16, []> var_787_to_fp16 = const()[name = tensor<string, []>("op_787_to_fp16"), val = tensor<fp16, []>(0x1.5p-17)];
            tensor<fp16, [1, 1, 1, 1500]> var_788_cast_fp16 = add(x = var_786_cast_fp16, y = var_787_to_fp16)[name = tensor<string, []>("op_788_cast_fp16")];
            tensor<fp32, []> denom_11_epsilon_0 = const()[name = tensor<string, []>("denom_11_epsilon_0"), val = tensor<fp32, []>(0x1.197998p-40)];
            tensor<fp16, [1, 1, 1, 1500]> denom_11_cast_fp16 = rsqrt(epsilon = denom_11_epsilon_0, x = var_788_cast_fp16)[name = tensor<string, []>("denom_11_cast_fp16")];
            tensor<fp16, [1, 1280, 1, 1500]> out_11_cast_fp16 = mul(x = zero_mean_11_cast_fp16, y = denom_11_cast_fp16)[name = tensor<string, []>("out_11_cast_fp16")];
            tensor<fp16, [1280]> input_51_gamma_0_to_fp16 = const()[name = tensor<string, []>("input_51_gamma_0_to_fp16"), val = tensor<fp16, [1280]>(BLOBFILE(path = tensor<string, []>("@model_path/weights/weight.bin"), offset = tensor<uint64, []>(39495168)))];
            tensor<fp16, [1280]> input_51_beta_0_to_fp16 = const()[name = tensor<string, []>("input_51_beta_0_to_fp16"), val = tensor<fp16, [1280]>(BLOBFILE(path = tensor<string, []>("@model_path/weights/weight.bin"), offset = tensor<uint64, []>(39497792)))];
            tensor<fp16, []> input_51_epsilon_0_to_fp16 = const()[name = tensor<string, []>("input_51_epsilon_0_to_fp16"), val = tensor<fp16, []>(0x1.5p-17)];
            tensor<fp16, [1, 1280, 1, 1500]> input_51_cast_fp16 = batch_norm(beta = input_51_beta_0_to_fp16, epsilon = input_51_epsilon_0_to_fp16, gamma = input_51_gamma_0_to_fp16, mean = obj_1_mean_0_to_fp16, variance = obj_1_variance_0_to_fp16, x = out_11_cast_fp16)[name = tensor<string, []>("input_51_cast_fp16")];
            tensor<int32, [2]> var_802 = const()[name = tensor<string, []>("op_802"), val = tensor<int32, [2]>([1, 1])];
            tensor<int32, [2]> var_804 = const()[name = tensor<string, []>("op_804"), val = tensor<int32, [2]>([1, 1])];
            tensor<string, []> pretrained_out_33_pad_type_0 = const()[name = tensor<string, []>("pretrained_out_33_pad_type_0"), val = tensor<string, []>("custom")];
            tensor<int32, [4]> pretrained_out_33_pad_0 = const()[name = tensor<string, []>("pretrained_out_33_pad_0"), val = tensor<int32, [4]>([0, 0, 0, 0])];
            tensor<fp16, [5120, 1280, 1, 1]> layers_2_fc1_pretrained_weight_to_fp16_palettized = constexpr_lut_to_dense()[indices = tensor<uint8, [3276800]>(BLOBFILE(path = tensor<string, []>("@model_path/weights/weight.bin"), offset = tensor<uint64, []>(39500416))), lut = tensor<fp16, [16]>(BLOBFILE(path = tensor<string, []>("@model_path/weights/weight.bin"), offset = tensor<uint64, []>(42777280))), name = tensor<string, []>("layers_2_fc1_pretrained_weight_to_fp16_palettized"), shape = tensor<uint32, [4]>([5120, 1280, 1, 1])];
            tensor<fp16, [5120]> layers_2_fc1_pretrained_bias_to_fp16 = const()[name = tensor<string, []>("layers_2_fc1_pretrained_bias_to_fp16"), val = tensor<fp16, [5120]>(BLOBFILE(path = tensor<string, []>("@model_path/weights/weight.bin"), offset = tensor<uint64, []>(42777408)))];
            tensor<fp16, [1, 5120, 1, 1500]> pretrained_out_33_cast_fp16 = conv(bias = layers_2_fc1_pretrained_bias_to_fp16, dilations = var_804, groups = var_632, pad = pretrained_out_33_pad_0, pad_type = pretrained_out_33_pad_type_0, strides = var_802, weight = layers_2_fc1_pretrained_weight_to_fp16_palettized, x = input_51_cast_fp16)[name = tensor<string, []>("pretrained_out_33_cast_fp16")];
            tensor<int32, [2]> var_808 = const()[name = tensor<string, []>("op_808"), val = tensor<int32, [2]>([1, 1])];
            tensor<int32, [2]> var_810 = const()[name = tensor<string, []>("op_810"), val = tensor<int32, [2]>([1, 1])];
            tensor<string, []> input_53_pad_type_0 = const()[name = tensor<string, []>("input_53_pad_type_0"), val = tensor<string, []>("custom")];
            tensor<int32, [4]> input_53_pad_0 = const()[name = tensor<string, []>("input_53_pad_0"), val = tensor<int32, [4]>([0, 0, 0, 0])];
            tensor<fp16, [16, 1280, 1, 1]> layers_2_fc1_loraA_weight_to_fp16 = const()[name = tensor<string, []>("layers_2_fc1_loraA_weight_to_fp16"), val = tensor<fp16, [16, 1280, 1, 1]>(BLOBFILE(path = tensor<string, []>("@model_path/weights/weight.bin"), offset = tensor<uint64, []>(42787712)))];
            tensor<fp16, [1, 16, 1, 1500]> input_53_cast_fp16 = conv(dilations = var_810, groups = var_632, pad = input_53_pad_0, pad_type = input_53_pad_type_0, strides = var_808, weight = layers_2_fc1_loraA_weight_to_fp16, x = input_51_cast_fp16)[name = tensor<string, []>("input_53_cast_fp16")];
            tensor<int32, [2]> var_814 = const()[name = tensor<string, []>("op_814"), val = tensor<int32, [2]>([1, 1])];
            tensor<int32, [2]> var_816 = const()[name = tensor<string, []>("op_816"), val = tensor<int32, [2]>([1, 1])];
            tensor<string, []> lora_out_65_pad_type_0 = const()[name = tensor<string, []>("lora_out_65_pad_type_0"), val = tensor<string, []>("custom")];
            tensor<int32, [4]> lora_out_65_pad_0 = const()[name = tensor<string, []>("lora_out_65_pad_0"), val = tensor<int32, [4]>([0, 0, 0, 0])];
            tensor<fp16, [5120, 16, 1, 1]> lora_out_67_weight_0_to_fp16 = const()[name = tensor<string, []>("lora_out_67_weight_0_to_fp16"), val = tensor<fp16, [5120, 16, 1, 1]>(BLOBFILE(path = tensor<string, []>("@model_path/weights/weight.bin"), offset = tensor<uint64, []>(42828736)))];
            tensor<fp16, [1, 5120, 1, 1500]> lora_out_67_cast_fp16 = conv(bias = lora_out_19_bias_0_to_fp16, dilations = var_816, groups = var_632, pad = lora_out_65_pad_0, pad_type = lora_out_65_pad_type_0, strides = var_814, weight = lora_out_67_weight_0_to_fp16, x = input_53_cast_fp16)[name = tensor<string, []>("lora_out_67_cast_fp16")];
            tensor<fp16, [1, 5120, 1, 1500]> input_55_cast_fp16 = add(x = pretrained_out_33_cast_fp16, y = lora_out_67_cast_fp16)[name = tensor<string, []>("input_55_cast_fp16")];
            tensor<string, []> input_57_mode_0 = const()[name = tensor<string, []>("input_57_mode_0"), val = tensor<string, []>("EXACT")];
            tensor<fp16, [1, 5120, 1, 1500]> input_57_cast_fp16 = gelu(mode = input_57_mode_0, x = input_55_cast_fp16)[name = tensor<string, []>("input_57_cast_fp16")];
            tensor<int32, [2]> var_828 = const()[name = tensor<string, []>("op_828"), val = tensor<int32, [2]>([1, 1])];
            tensor<int32, [2]> var_830 = const()[name = tensor<string, []>("op_830"), val = tensor<int32, [2]>([1, 1])];
            tensor<string, []> pretrained_out_35_pad_type_0 = const()[name = tensor<string, []>("pretrained_out_35_pad_type_0"), val = tensor<string, []>("custom")];
            tensor<int32, [4]> pretrained_out_35_pad_0 = const()[name = tensor<string, []>("pretrained_out_35_pad_0"), val = tensor<int32, [4]>([0, 0, 0, 0])];
            tensor<fp16, [1280, 5120, 1, 1]> layers_2_fc2_pretrained_weight_to_fp16_palettized = constexpr_lut_to_dense()[indices = tensor<uint8, [3276800]>(BLOBFILE(path = tensor<string, []>("@model_path/weights/weight.bin"), offset = tensor<uint64, []>(42992640))), lut = tensor<fp16, [16]>(BLOBFILE(path = tensor<string, []>("@model_path/weights/weight.bin"), offset = tensor<uint64, []>(46269504))), name = tensor<string, []>("layers_2_fc2_pretrained_weight_to_fp16_palettized"), shape = tensor<uint32, [4]>([1280, 5120, 1, 1])];
            tensor<fp16, [1280]> layers_2_fc2_pretrained_bias_to_fp16 = const()[name = tensor<string, []>("layers_2_fc2_pretrained_bias_to_fp16"), val = tensor<fp16, [1280]>(BLOBFILE(path = tensor<string, []>("@model_path/weights/weight.bin"), offset = tensor<uint64, []>(46269632)))];
            tensor<fp16, [1, 1280, 1, 1500]> pretrained_out_35_cast_fp16 = conv(bias = layers_2_fc2_pretrained_bias_to_fp16, dilations = var_830, groups = var_632, pad = pretrained_out_35_pad_0, pad_type = pretrained_out_35_pad_type_0, strides = var_828, weight = layers_2_fc2_pretrained_weight_to_fp16_palettized, x = input_57_cast_fp16)[name = tensor<string, []>("pretrained_out_35_cast_fp16")];
            tensor<int32, [2]> var_834 = const()[name = tensor<string, []>("op_834"), val = tensor<int32, [2]>([1, 1])];
            tensor<int32, [2]> var_836 = const()[name = tensor<string, []>("op_836"), val = tensor<int32, [2]>([1, 1])];
            tensor<string, []> input_59_pad_type_0 = const()[name = tensor<string, []>("input_59_pad_type_0"), val = tensor<string, []>("custom")];
            tensor<int32, [4]> input_59_pad_0 = const()[name = tensor<string, []>("input_59_pad_0"), val = tensor<int32, [4]>([0, 0, 0, 0])];
            tensor<fp16, [16, 5120, 1, 1]> layers_2_fc2_loraA_weight_to_fp16 = const()[name = tensor<string, []>("layers_2_fc2_loraA_weight_to_fp16"), val = tensor<fp16, [16, 5120, 1, 1]>(BLOBFILE(path = tensor<string, []>("@model_path/weights/weight.bin"), offset = tensor<uint64, []>(46272256)))];
            tensor<fp16, [1, 16, 1, 1500]> input_59_cast_fp16 = conv(dilations = var_836, groups = var_632, pad = input_59_pad_0, pad_type = input_59_pad_type_0, strides = var_834, weight = layers_2_fc2_loraA_weight_to_fp16, x = input_57_cast_fp16)[name = tensor<string, []>("input_59_cast_fp16")];
            tensor<int32, [2]> var_840 = const()[name = tensor<string, []>("op_840"), val = tensor<int32, [2]>([1, 1])];
            tensor<int32, [2]> var_842 = const()[name = tensor<string, []>("op_842"), val = tensor<int32, [2]>([1, 1])];
            tensor<string, []> lora_out_69_pad_type_0 = const()[name = tensor<string, []>("lora_out_69_pad_type_0"), val = tensor<string, []>("custom")];
            tensor<int32, [4]> lora_out_69_pad_0 = const()[name = tensor<string, []>("lora_out_69_pad_0"), val = tensor<int32, [4]>([0, 0, 0, 0])];
            tensor<fp16, [1280, 16, 1, 1]> lora_out_71_weight_0_to_fp16 = const()[name = tensor<string, []>("lora_out_71_weight_0_to_fp16"), val = tensor<fp16, [1280, 16, 1, 1]>(BLOBFILE(path = tensor<string, []>("@model_path/weights/weight.bin"), offset = tensor<uint64, []>(46436160)))];
            tensor<fp16, [1, 1280, 1, 1500]> lora_out_71_cast_fp16 = conv(bias = obj_1_mean_0_to_fp16, dilations = var_842, groups = var_632, pad = lora_out_69_pad_0, pad_type = lora_out_69_pad_type_0, strides = var_840, weight = lora_out_71_weight_0_to_fp16, x = input_59_cast_fp16)[name = tensor<string, []>("lora_out_71_cast_fp16")];
            tensor<fp16, [1, 1280, 1, 1500]> hidden_states_9_cast_fp16 = add(x = pretrained_out_35_cast_fp16, y = lora_out_71_cast_fp16)[name = tensor<string, []>("hidden_states_9_cast_fp16")];
            tensor<fp16, [1, 1280, 1, 1500]> inputs_13_cast_fp16 = add(x = inputs_11_cast_fp16, y = hidden_states_9_cast_fp16)[name = tensor<string, []>("inputs_13_cast_fp16")];
            tensor<int32, []> var_856 = const()[name = tensor<string, []>("op_856"), val = tensor<int32, []>(3)];
            tensor<int32, []> var_858 = const()[name = tensor<string, []>("op_858"), val = tensor<int32, []>(1)];
            tensor<bool, []> var_859 = const()[name = tensor<string, []>("op_859"), val = tensor<bool, []>(true)];
            tensor<int32, [1]> var_869 = const()[name = tensor<string, []>("op_869"), val = tensor<int32, [1]>([1])];
            tensor<fp16, [1, 1, 1, 1500]> channels_mean_13_cast_fp16 = reduce_mean(axes = var_869, keep_dims = var_859, x = inputs_13_cast_fp16)[name = tensor<string, []>("channels_mean_13_cast_fp16")];
            tensor<fp16, [1, 1280, 1, 1500]> zero_mean_13_cast_fp16 = sub(x = inputs_13_cast_fp16, y = channels_mean_13_cast_fp16)[name = tensor<string, []>("zero_mean_13_cast_fp16")];
            tensor<fp16, [1, 1280, 1, 1500]> zero_mean_sq_13_cast_fp16 = mul(x = zero_mean_13_cast_fp16, y = zero_mean_13_cast_fp16)[name = tensor<string, []>("zero_mean_sq_13_cast_fp16")];
            tensor<int32, [1]> var_873 = const()[name = tensor<string, []>("op_873"), val = tensor<int32, [1]>([1])];
            tensor<fp16, [1, 1, 1, 1500]> var_874_cast_fp16 = reduce_mean(axes = var_873, keep_dims = var_859, x = zero_mean_sq_13_cast_fp16)[name = tensor<string, []>("op_874_cast_fp16")];
            tensor<fp16, []> var_875_to_fp16 = const()[name = tensor<string, []>("op_875_to_fp16"), val = tensor<fp16, []>(0x1.5p-17)];
            tensor<fp16, [1, 1, 1, 1500]> var_876_cast_fp16 = add(x = var_874_cast_fp16, y = var_875_to_fp16)[name = tensor<string, []>("op_876_cast_fp16")];
            tensor<fp32, []> denom_13_epsilon_0 = const()[name = tensor<string, []>("denom_13_epsilon_0"), val = tensor<fp32, []>(0x1.197998p-40)];
            tensor<fp16, [1, 1, 1, 1500]> denom_13_cast_fp16 = rsqrt(epsilon = denom_13_epsilon_0, x = var_876_cast_fp16)[name = tensor<string, []>("denom_13_cast_fp16")];
            tensor<fp16, [1, 1280, 1, 1500]> out_13_cast_fp16 = mul(x = zero_mean_13_cast_fp16, y = denom_13_cast_fp16)[name = tensor<string, []>("out_13_cast_fp16")];
            tensor<fp16, [1280]> obj_13_gamma_0_to_fp16 = const()[name = tensor<string, []>("obj_13_gamma_0_to_fp16"), val = tensor<fp16, [1280]>(BLOBFILE(path = tensor<string, []>("@model_path/weights/weight.bin"), offset = tensor<uint64, []>(46477184)))];
            tensor<fp16, [1280]> obj_13_beta_0_to_fp16 = const()[name = tensor<string, []>("obj_13_beta_0_to_fp16"), val = tensor<fp16, [1280]>(BLOBFILE(path = tensor<string, []>("@model_path/weights/weight.bin"), offset = tensor<uint64, []>(46479808)))];
            tensor<fp16, []> obj_13_epsilon_0_to_fp16 = const()[name = tensor<string, []>("obj_13_epsilon_0_to_fp16"), val = tensor<fp16, []>(0x1.5p-17)];
            tensor<fp16, [1, 1280, 1, 1500]> obj_13_cast_fp16 = batch_norm(beta = obj_13_beta_0_to_fp16, epsilon = obj_13_epsilon_0_to_fp16, gamma = obj_13_gamma_0_to_fp16, mean = obj_1_mean_0_to_fp16, variance = obj_1_variance_0_to_fp16, x = out_13_cast_fp16)[name = tensor<string, []>("obj_13_cast_fp16")];
            tensor<int32, [2]> var_894 = const()[name = tensor<string, []>("op_894"), val = tensor<int32, [2]>([1, 1])];
            tensor<int32, [2]> var_896 = const()[name = tensor<string, []>("op_896"), val = tensor<int32, [2]>([1, 1])];
            tensor<string, []> pretrained_out_37_pad_type_0 = const()[name = tensor<string, []>("pretrained_out_37_pad_type_0"), val = tensor<string, []>("custom")];
            tensor<int32, [4]> pretrained_out_37_pad_0 = const()[name = tensor<string, []>("pretrained_out_37_pad_0"), val = tensor<int32, [4]>([0, 0, 0, 0])];
            tensor<fp16, [1280, 1280, 1, 1]> layers_3_self_attn_q_proj_pretrained_weight_to_fp16_palettized = constexpr_lut_to_dense()[indices = tensor<uint8, [819200]>(BLOBFILE(path = tensor<string, []>("@model_path/weights/weight.bin"), offset = tensor<uint64, []>(46482432))), lut = tensor<fp16, [16]>(BLOBFILE(path = tensor<string, []>("@model_path/weights/weight.bin"), offset = tensor<uint64, []>(47301696))), name = tensor<string, []>("layers_3_self_attn_q_proj_pretrained_weight_to_fp16_palettized"), shape = tensor<uint32, [4]>([1280, 1280, 1, 1])];
            tensor<fp16, [1280]> layers_3_self_attn_q_proj_pretrained_bias_to_fp16 = const()[name = tensor<string, []>("layers_3_self_attn_q_proj_pretrained_bias_to_fp16"), val = tensor<fp16, [1280]>(BLOBFILE(path = tensor<string, []>("@model_path/weights/weight.bin"), offset = tensor<uint64, []>(47301824)))];
            tensor<fp16, [1, 1280, 1, 1500]> pretrained_out_37_cast_fp16 = conv(bias = layers_3_self_attn_q_proj_pretrained_bias_to_fp16, dilations = var_896, groups = var_858, pad = pretrained_out_37_pad_0, pad_type = pretrained_out_37_pad_type_0, strides = var_894, weight = layers_3_self_attn_q_proj_pretrained_weight_to_fp16_palettized, x = obj_13_cast_fp16)[name = tensor<string, []>("pretrained_out_37_cast_fp16")];
            tensor<int32, [2]> var_900 = const()[name = tensor<string, []>("op_900"), val = tensor<int32, [2]>([1, 1])];
            tensor<int32, [2]> var_902 = const()[name = tensor<string, []>("op_902"), val = tensor<int32, [2]>([1, 1])];
            tensor<string, []> input_61_pad_type_0 = const()[name = tensor<string, []>("input_61_pad_type_0"), val = tensor<string, []>("custom")];
            tensor<int32, [4]> input_61_pad_0 = const()[name = tensor<string, []>("input_61_pad_0"), val = tensor<int32, [4]>([0, 0, 0, 0])];
            tensor<fp16, [16, 1280, 1, 1]> layers_3_self_attn_q_proj_loraA_weight_to_fp16 = const()[name = tensor<string, []>("layers_3_self_attn_q_proj_loraA_weight_to_fp16"), val = tensor<fp16, [16, 1280, 1, 1]>(BLOBFILE(path = tensor<string, []>("@model_path/weights/weight.bin"), offset = tensor<uint64, []>(47304448)))];
            tensor<fp16, [1, 16, 1, 1500]> input_61_cast_fp16 = conv(dilations = var_902, groups = var_858, pad = input_61_pad_0, pad_type = input_61_pad_type_0, strides = var_900, weight = layers_3_self_attn_q_proj_loraA_weight_to_fp16, x = obj_13_cast_fp16)[name = tensor<string, []>("input_61_cast_fp16")];
            tensor<int32, [2]> var_906 = const()[name = tensor<string, []>("op_906"), val = tensor<int32, [2]>([1, 1])];
            tensor<int32, [2]> var_908 = const()[name = tensor<string, []>("op_908"), val = tensor<int32, [2]>([1, 1])];
            tensor<string, []> lora_out_73_pad_type_0 = const()[name = tensor<string, []>("lora_out_73_pad_type_0"), val = tensor<string, []>("custom")];
            tensor<int32, [4]> lora_out_73_pad_0 = const()[name = tensor<string, []>("lora_out_73_pad_0"), val = tensor<int32, [4]>([0, 0, 0, 0])];
            tensor<fp16, [1280, 16, 1, 1]> lora_out_75_weight_0_to_fp16 = const()[name = tensor<string, []>("lora_out_75_weight_0_to_fp16"), val = tensor<fp16, [1280, 16, 1, 1]>(BLOBFILE(path = tensor<string, []>("@model_path/weights/weight.bin"), offset = tensor<uint64, []>(47345472)))];
            tensor<fp16, [1, 1280, 1, 1500]> lora_out_75_cast_fp16 = conv(bias = obj_1_mean_0_to_fp16, dilations = var_908, groups = var_858, pad = lora_out_73_pad_0, pad_type = lora_out_73_pad_type_0, strides = var_906, weight = lora_out_75_weight_0_to_fp16, x = input_61_cast_fp16)[name = tensor<string, []>("lora_out_75_cast_fp16")];
            tensor<fp16, [1, 1280, 1, 1500]> query_7_cast_fp16 = add(x = pretrained_out_37_cast_fp16, y = lora_out_75_cast_fp16)[name = tensor<string, []>("query_7_cast_fp16")];
            tensor<int32, [2]> var_918 = const()[name = tensor<string, []>("op_918"), val = tensor<int32, [2]>([1, 1])];
            tensor<int32, [2]> var_920 = const()[name = tensor<string, []>("op_920"), val = tensor<int32, [2]>([1, 1])];
            tensor<string, []> pretrained_out_39_pad_type_0 = const()[name = tensor<string, []>("pretrained_out_39_pad_type_0"), val = tensor<string, []>("custom")];
            tensor<int32, [4]> pretrained_out_39_pad_0 = const()[name = tensor<string, []>("pretrained_out_39_pad_0"), val = tensor<int32, [4]>([0, 0, 0, 0])];
            tensor<fp16, [1280, 1280, 1, 1]> layers_3_self_attn_k_proj_pretrained_weight_to_fp16_palettized = constexpr_lut_to_dense()[indices = tensor<uint8, [819200]>(BLOBFILE(path = tensor<string, []>("@model_path/weights/weight.bin"), offset = tensor<uint64, []>(47386496))), lut = tensor<fp16, [16]>(BLOBFILE(path = tensor<string, []>("@model_path/weights/weight.bin"), offset = tensor<uint64, []>(48205760))), name = tensor<string, []>("layers_3_self_attn_k_proj_pretrained_weight_to_fp16_palettized"), shape = tensor<uint32, [4]>([1280, 1280, 1, 1])];
            tensor<fp16, [1, 1280, 1, 1500]> pretrained_out_39_cast_fp16 = conv(dilations = var_920, groups = var_858, pad = pretrained_out_39_pad_0, pad_type = pretrained_out_39_pad_type_0, strides = var_918, weight = layers_3_self_attn_k_proj_pretrained_weight_to_fp16_palettized, x = obj_13_cast_fp16)[name = tensor<string, []>("pretrained_out_39_cast_fp16")];
            tensor<int32, [2]> var_924 = const()[name = tensor<string, []>("op_924"), val = tensor<int32, [2]>([1, 1])];
            tensor<int32, [2]> var_926 = const()[name = tensor<string, []>("op_926"), val = tensor<int32, [2]>([1, 1])];
            tensor<string, []> input_63_pad_type_0 = const()[name = tensor<string, []>("input_63_pad_type_0"), val = tensor<string, []>("custom")];
            tensor<int32, [4]> input_63_pad_0 = const()[name = tensor<string, []>("input_63_pad_0"), val = tensor<int32, [4]>([0, 0, 0, 0])];
            tensor<fp16, [16, 1280, 1, 1]> layers_3_self_attn_k_proj_loraA_weight_to_fp16 = const()[name = tensor<string, []>("layers_3_self_attn_k_proj_loraA_weight_to_fp16"), val = tensor<fp16, [16, 1280, 1, 1]>(BLOBFILE(path = tensor<string, []>("@model_path/weights/weight.bin"), offset = tensor<uint64, []>(48205888)))];
            tensor<fp16, [1, 16, 1, 1500]> input_63_cast_fp16 = conv(dilations = var_926, groups = var_858, pad = input_63_pad_0, pad_type = input_63_pad_type_0, strides = var_924, weight = layers_3_self_attn_k_proj_loraA_weight_to_fp16, x = obj_13_cast_fp16)[name = tensor<string, []>("input_63_cast_fp16")];
            tensor<int32, [2]> var_930 = const()[name = tensor<string, []>("op_930"), val = tensor<int32, [2]>([1, 1])];
            tensor<int32, [2]> var_932 = const()[name = tensor<string, []>("op_932"), val = tensor<int32, [2]>([1, 1])];
            tensor<string, []> lora_out_77_pad_type_0 = const()[name = tensor<string, []>("lora_out_77_pad_type_0"), val = tensor<string, []>("custom")];
            tensor<int32, [4]> lora_out_77_pad_0 = const()[name = tensor<string, []>("lora_out_77_pad_0"), val = tensor<int32, [4]>([0, 0, 0, 0])];
            tensor<fp16, [1280, 16, 1, 1]> lora_out_79_weight_0_to_fp16 = const()[name = tensor<string, []>("lora_out_79_weight_0_to_fp16"), val = tensor<fp16, [1280, 16, 1, 1]>(BLOBFILE(path = tensor<string, []>("@model_path/weights/weight.bin"), offset = tensor<uint64, []>(48246912)))];
            tensor<fp16, [1, 1280, 1, 1500]> lora_out_79_cast_fp16 = conv(bias = obj_1_mean_0_to_fp16, dilations = var_932, groups = var_858, pad = lora_out_77_pad_0, pad_type = lora_out_77_pad_type_0, strides = var_930, weight = lora_out_79_weight_0_to_fp16, x = input_63_cast_fp16)[name = tensor<string, []>("lora_out_79_cast_fp16")];
            tensor<fp16, [1, 1280, 1, 1500]> key_7_cast_fp16 = add(x = pretrained_out_39_cast_fp16, y = lora_out_79_cast_fp16)[name = tensor<string, []>("key_7_cast_fp16")];
            tensor<int32, [2]> var_943 = const()[name = tensor<string, []>("op_943"), val = tensor<int32, [2]>([1, 1])];
            tensor<int32, [2]> var_945 = const()[name = tensor<string, []>("op_945"), val = tensor<int32, [2]>([1, 1])];
            tensor<string, []> pretrained_out_41_pad_type_0 = const()[name = tensor<string, []>("pretrained_out_41_pad_type_0"), val = tensor<string, []>("custom")];
            tensor<int32, [4]> pretrained_out_41_pad_0 = const()[name = tensor<string, []>("pretrained_out_41_pad_0"), val = tensor<int32, [4]>([0, 0, 0, 0])];
            tensor<fp16, [1280, 1280, 1, 1]> layers_3_self_attn_v_proj_pretrained_weight_to_fp16_palettized = constexpr_lut_to_dense()[indices = tensor<uint8, [819200]>(BLOBFILE(path = tensor<string, []>("@model_path/weights/weight.bin"), offset = tensor<uint64, []>(48287936))), lut = tensor<fp16, [16]>(BLOBFILE(path = tensor<string, []>("@model_path/weights/weight.bin"), offset = tensor<uint64, []>(49107200))), name = tensor<string, []>("layers_3_self_attn_v_proj_pretrained_weight_to_fp16_palettized"), shape = tensor<uint32, [4]>([1280, 1280, 1, 1])];
            tensor<fp16, [1280]> layers_3_self_attn_v_proj_pretrained_bias_to_fp16 = const()[name = tensor<string, []>("layers_3_self_attn_v_proj_pretrained_bias_to_fp16"), val = tensor<fp16, [1280]>(BLOBFILE(path = tensor<string, []>("@model_path/weights/weight.bin"), offset = tensor<uint64, []>(49107328)))];
            tensor<fp16, [1, 1280, 1, 1500]> pretrained_out_41_cast_fp16 = conv(bias = layers_3_self_attn_v_proj_pretrained_bias_to_fp16, dilations = var_945, groups = var_858, pad = pretrained_out_41_pad_0, pad_type = pretrained_out_41_pad_type_0, strides = var_943, weight = layers_3_self_attn_v_proj_pretrained_weight_to_fp16_palettized, x = obj_13_cast_fp16)[name = tensor<string, []>("pretrained_out_41_cast_fp16")];
            tensor<int32, [2]> var_949 = const()[name = tensor<string, []>("op_949"), val = tensor<int32, [2]>([1, 1])];
            tensor<int32, [2]> var_951 = const()[name = tensor<string, []>("op_951"), val = tensor<int32, [2]>([1, 1])];
            tensor<string, []> input_65_pad_type_0 = const()[name = tensor<string, []>("input_65_pad_type_0"), val = tensor<string, []>("custom")];
            tensor<int32, [4]> input_65_pad_0 = const()[name = tensor<string, []>("input_65_pad_0"), val = tensor<int32, [4]>([0, 0, 0, 0])];
            tensor<fp16, [16, 1280, 1, 1]> layers_3_self_attn_v_proj_loraA_weight_to_fp16 = const()[name = tensor<string, []>("layers_3_self_attn_v_proj_loraA_weight_to_fp16"), val = tensor<fp16, [16, 1280, 1, 1]>(BLOBFILE(path = tensor<string, []>("@model_path/weights/weight.bin"), offset = tensor<uint64, []>(49109952)))];
            tensor<fp16, [1, 16, 1, 1500]> input_65_cast_fp16 = conv(dilations = var_951, groups = var_858, pad = input_65_pad_0, pad_type = input_65_pad_type_0, strides = var_949, weight = layers_3_self_attn_v_proj_loraA_weight_to_fp16, x = obj_13_cast_fp16)[name = tensor<string, []>("input_65_cast_fp16")];
            tensor<int32, [2]> var_955 = const()[name = tensor<string, []>("op_955"), val = tensor<int32, [2]>([1, 1])];
            tensor<int32, [2]> var_957 = const()[name = tensor<string, []>("op_957"), val = tensor<int32, [2]>([1, 1])];
            tensor<string, []> lora_out_81_pad_type_0 = const()[name = tensor<string, []>("lora_out_81_pad_type_0"), val = tensor<string, []>("custom")];
            tensor<int32, [4]> lora_out_81_pad_0 = const()[name = tensor<string, []>("lora_out_81_pad_0"), val = tensor<int32, [4]>([0, 0, 0, 0])];
            tensor<fp16, [1280, 16, 1, 1]> lora_out_83_weight_0_to_fp16 = const()[name = tensor<string, []>("lora_out_83_weight_0_to_fp16"), val = tensor<fp16, [1280, 16, 1, 1]>(BLOBFILE(path = tensor<string, []>("@model_path/weights/weight.bin"), offset = tensor<uint64, []>(49150976)))];
            tensor<fp16, [1, 1280, 1, 1500]> lora_out_83_cast_fp16 = conv(bias = obj_1_mean_0_to_fp16, dilations = var_957, groups = var_858, pad = lora_out_81_pad_0, pad_type = lora_out_81_pad_type_0, strides = var_955, weight = lora_out_83_weight_0_to_fp16, x = input_65_cast_fp16)[name = tensor<string, []>("lora_out_83_cast_fp16")];
            tensor<fp16, [1, 1280, 1, 1500]> value_7_cast_fp16 = add(x = pretrained_out_41_cast_fp16, y = lora_out_83_cast_fp16)[name = tensor<string, []>("value_7_cast_fp16")];
            tensor<int32, [4]> var_964 = const()[name = tensor<string, []>("op_964"), val = tensor<int32, [4]>([1, 20, 64, -1])];
            tensor<fp16, [1, 20, 64, 1500]> var_965_cast_fp16 = reshape(shape = var_964, x = query_7_cast_fp16)[name = tensor<string, []>("op_965_cast_fp16")];
            tensor<fp16, []> var_966_to_fp16 = const()[name = tensor<string, []>("op_966_to_fp16"), val = tensor<fp16, []>(0x1p-3)];
            tensor<fp16, [1, 20, 64, 1500]> var_967_cast_fp16 = mul(x = var_965_cast_fp16, y = var_966_to_fp16)[name = tensor<string, []>("op_967_cast_fp16")];
            tensor<int32, [4]> var_968 = const()[name = tensor<string, []>("op_968"), val = tensor<int32, [4]>([1, 20, 64, -1])];
            tensor<fp16, [1, 20, 64, 1500]> var_969_cast_fp16 = reshape(shape = var_968, x = key_7_cast_fp16)[name = tensor<string, []>("op_969_cast_fp16")];
            tensor<bool, []> mh_w_7_transpose_x_0 = const()[name = tensor<string, []>("mh_w_7_transpose_x_0"), val = tensor<bool, []>(true)];
            tensor<bool, []> mh_w_7_transpose_y_0 = const()[name = tensor<string, []>("mh_w_7_transpose_y_0"), val = tensor<bool, []>(false)];
            tensor<fp16, [1, 20, 1500, 1500]> mh_w_7_cast_fp16 = matmul(transpose_x = mh_w_7_transpose_x_0, transpose_y = mh_w_7_transpose_y_0, x = var_967_cast_fp16, y = var_969_cast_fp16)[name = tensor<string, []>("mh_w_7_cast_fp16")];
            tensor<fp16, [1, 20, 1500, 1500]> var_972_cast_fp16 = softmax(axis = var_856, x = mh_w_7_cast_fp16)[name = tensor<string, []>("op_972_cast_fp16")];
            tensor<int32, [4]> var_973 = const()[name = tensor<string, []>("op_973"), val = tensor<int32, [4]>([1, 20, 64, -1])];
            tensor<fp16, [1, 20, 64, 1500]> var_974_cast_fp16 = reshape(shape = var_973, x = value_7_cast_fp16)[name = tensor<string, []>("op_974_cast_fp16")];
            tensor<bool, []> attn_7_transpose_x_0 = const()[name = tensor<string, []>("attn_7_transpose_x_0"), val = tensor<bool, []>(false)];
            tensor<bool, []> attn_7_transpose_y_0 = const()[name = tensor<string, []>("attn_7_transpose_y_0"), val = tensor<bool, []>(true)];
            tensor<fp16, [1, 20, 64, 1500]> attn_7_cast_fp16 = matmul(transpose_x = attn_7_transpose_x_0, transpose_y = attn_7_transpose_y_0, x = var_974_cast_fp16, y = var_972_cast_fp16)[name = tensor<string, []>("attn_7_cast_fp16")];
            tensor<int32, [4]> var_977 = const()[name = tensor<string, []>("op_977"), val = tensor<int32, [4]>([1, 1280, 1, -1])];
            tensor<fp16, [1, 1280, 1, 1500]> input_67_cast_fp16 = reshape(shape = var_977, x = attn_7_cast_fp16)[name = tensor<string, []>("input_67_cast_fp16")];
            tensor<int32, [2]> var_984 = const()[name = tensor<string, []>("op_984"), val = tensor<int32, [2]>([1, 1])];
            tensor<int32, [2]> var_986 = const()[name = tensor<string, []>("op_986"), val = tensor<int32, [2]>([1, 1])];
            tensor<string, []> pretrained_out_43_pad_type_0 = const()[name = tensor<string, []>("pretrained_out_43_pad_type_0"), val = tensor<string, []>("custom")];
            tensor<int32, [4]> pretrained_out_43_pad_0 = const()[name = tensor<string, []>("pretrained_out_43_pad_0"), val = tensor<int32, [4]>([0, 0, 0, 0])];
            tensor<fp16, [1280, 1280, 1, 1]> layers_3_self_attn_o_proj_pretrained_weight_to_fp16_palettized = constexpr_lut_to_dense()[indices = tensor<uint8, [819200]>(BLOBFILE(path = tensor<string, []>("@model_path/weights/weight.bin"), offset = tensor<uint64, []>(49192000))), lut = tensor<fp16, [16]>(BLOBFILE(path = tensor<string, []>("@model_path/weights/weight.bin"), offset = tensor<uint64, []>(50011264))), name = tensor<string, []>("layers_3_self_attn_o_proj_pretrained_weight_to_fp16_palettized"), shape = tensor<uint32, [4]>([1280, 1280, 1, 1])];
            tensor<fp16, [1280]> layers_3_self_attn_o_proj_pretrained_bias_to_fp16 = const()[name = tensor<string, []>("layers_3_self_attn_o_proj_pretrained_bias_to_fp16"), val = tensor<fp16, [1280]>(BLOBFILE(path = tensor<string, []>("@model_path/weights/weight.bin"), offset = tensor<uint64, []>(50011392)))];
            tensor<fp16, [1, 1280, 1, 1500]> pretrained_out_43_cast_fp16 = conv(bias = layers_3_self_attn_o_proj_pretrained_bias_to_fp16, dilations = var_986, groups = var_858, pad = pretrained_out_43_pad_0, pad_type = pretrained_out_43_pad_type_0, strides = var_984, weight = layers_3_self_attn_o_proj_pretrained_weight_to_fp16_palettized, x = input_67_cast_fp16)[name = tensor<string, []>("pretrained_out_43_cast_fp16")];
            tensor<int32, [2]> var_990 = const()[name = tensor<string, []>("op_990"), val = tensor<int32, [2]>([1, 1])];
            tensor<int32, [2]> var_992 = const()[name = tensor<string, []>("op_992"), val = tensor<int32, [2]>([1, 1])];
            tensor<string, []> input_69_pad_type_0 = const()[name = tensor<string, []>("input_69_pad_type_0"), val = tensor<string, []>("custom")];
            tensor<int32, [4]> input_69_pad_0 = const()[name = tensor<string, []>("input_69_pad_0"), val = tensor<int32, [4]>([0, 0, 0, 0])];
            tensor<fp16, [16, 1280, 1, 1]> layers_3_self_attn_o_proj_loraA_weight_to_fp16 = const()[name = tensor<string, []>("layers_3_self_attn_o_proj_loraA_weight_to_fp16"), val = tensor<fp16, [16, 1280, 1, 1]>(BLOBFILE(path = tensor<string, []>("@model_path/weights/weight.bin"), offset = tensor<uint64, []>(50014016)))];
            tensor<fp16, [1, 16, 1, 1500]> input_69_cast_fp16 = conv(dilations = var_992, groups = var_858, pad = input_69_pad_0, pad_type = input_69_pad_type_0, strides = var_990, weight = layers_3_self_attn_o_proj_loraA_weight_to_fp16, x = input_67_cast_fp16)[name = tensor<string, []>("input_69_cast_fp16")];
            tensor<int32, [2]> var_996 = const()[name = tensor<string, []>("op_996"), val = tensor<int32, [2]>([1, 1])];
            tensor<int32, [2]> var_998 = const()[name = tensor<string, []>("op_998"), val = tensor<int32, [2]>([1, 1])];
            tensor<string, []> lora_out_85_pad_type_0 = const()[name = tensor<string, []>("lora_out_85_pad_type_0"), val = tensor<string, []>("custom")];
            tensor<int32, [4]> lora_out_85_pad_0 = const()[name = tensor<string, []>("lora_out_85_pad_0"), val = tensor<int32, [4]>([0, 0, 0, 0])];
            tensor<fp16, [1280, 16, 1, 1]> lora_out_87_weight_0_to_fp16 = const()[name = tensor<string, []>("lora_out_87_weight_0_to_fp16"), val = tensor<fp16, [1280, 16, 1, 1]>(BLOBFILE(path = tensor<string, []>("@model_path/weights/weight.bin"), offset = tensor<uint64, []>(50055040)))];
            tensor<fp16, [1, 1280, 1, 1500]> lora_out_87_cast_fp16 = conv(bias = obj_1_mean_0_to_fp16, dilations = var_998, groups = var_858, pad = lora_out_85_pad_0, pad_type = lora_out_85_pad_type_0, strides = var_996, weight = lora_out_87_weight_0_to_fp16, x = input_69_cast_fp16)[name = tensor<string, []>("lora_out_87_cast_fp16")];
            tensor<fp16, [1, 1280, 1, 1500]> obj_15_cast_fp16 = add(x = pretrained_out_43_cast_fp16, y = lora_out_87_cast_fp16)[name = tensor<string, []>("obj_15_cast_fp16")];
            tensor<fp16, [1, 1280, 1, 1500]> inputs_15_cast_fp16 = add(x = inputs_13_cast_fp16, y = obj_15_cast_fp16)[name = tensor<string, []>("inputs_15_cast_fp16")];
            tensor<int32, [1]> var_1007 = const()[name = tensor<string, []>("op_1007"), val = tensor<int32, [1]>([1])];
            tensor<fp16, [1, 1, 1, 1500]> channels_mean_15_cast_fp16 = reduce_mean(axes = var_1007, keep_dims = var_859, x = inputs_15_cast_fp16)[name = tensor<string, []>("channels_mean_15_cast_fp16")];
            tensor<fp16, [1, 1280, 1, 1500]> zero_mean_15_cast_fp16 = sub(x = inputs_15_cast_fp16, y = channels_mean_15_cast_fp16)[name = tensor<string, []>("zero_mean_15_cast_fp16")];
            tensor<fp16, [1, 1280, 1, 1500]> zero_mean_sq_15_cast_fp16 = mul(x = zero_mean_15_cast_fp16, y = zero_mean_15_cast_fp16)[name = tensor<string, []>("zero_mean_sq_15_cast_fp16")];
            tensor<int32, [1]> var_1011 = const()[name = tensor<string, []>("op_1011"), val = tensor<int32, [1]>([1])];
            tensor<fp16, [1, 1, 1, 1500]> var_1012_cast_fp16 = reduce_mean(axes = var_1011, keep_dims = var_859, x = zero_mean_sq_15_cast_fp16)[name = tensor<string, []>("op_1012_cast_fp16")];
            tensor<fp16, []> var_1013_to_fp16 = const()[name = tensor<string, []>("op_1013_to_fp16"), val = tensor<fp16, []>(0x1.5p-17)];
            tensor<fp16, [1, 1, 1, 1500]> var_1014_cast_fp16 = add(x = var_1012_cast_fp16, y = var_1013_to_fp16)[name = tensor<string, []>("op_1014_cast_fp16")];
            tensor<fp32, []> denom_15_epsilon_0 = const()[name = tensor<string, []>("denom_15_epsilon_0"), val = tensor<fp32, []>(0x1.197998p-40)];
            tensor<fp16, [1, 1, 1, 1500]> denom_15_cast_fp16 = rsqrt(epsilon = denom_15_epsilon_0, x = var_1014_cast_fp16)[name = tensor<string, []>("denom_15_cast_fp16")];
            tensor<fp16, [1, 1280, 1, 1500]> out_15_cast_fp16 = mul(x = zero_mean_15_cast_fp16, y = denom_15_cast_fp16)[name = tensor<string, []>("out_15_cast_fp16")];
            tensor<fp16, [1280]> input_71_gamma_0_to_fp16 = const()[name = tensor<string, []>("input_71_gamma_0_to_fp16"), val = tensor<fp16, [1280]>(BLOBFILE(path = tensor<string, []>("@model_path/weights/weight.bin"), offset = tensor<uint64, []>(50096064)))];
            tensor<fp16, [1280]> input_71_beta_0_to_fp16 = const()[name = tensor<string, []>("input_71_beta_0_to_fp16"), val = tensor<fp16, [1280]>(BLOBFILE(path = tensor<string, []>("@model_path/weights/weight.bin"), offset = tensor<uint64, []>(50098688)))];
            tensor<fp16, []> input_71_epsilon_0_to_fp16 = const()[name = tensor<string, []>("input_71_epsilon_0_to_fp16"), val = tensor<fp16, []>(0x1.5p-17)];
            tensor<fp16, [1, 1280, 1, 1500]> input_71_cast_fp16 = batch_norm(beta = input_71_beta_0_to_fp16, epsilon = input_71_epsilon_0_to_fp16, gamma = input_71_gamma_0_to_fp16, mean = obj_1_mean_0_to_fp16, variance = obj_1_variance_0_to_fp16, x = out_15_cast_fp16)[name = tensor<string, []>("input_71_cast_fp16")];
            tensor<int32, [2]> var_1028 = const()[name = tensor<string, []>("op_1028"), val = tensor<int32, [2]>([1, 1])];
            tensor<int32, [2]> var_1030 = const()[name = tensor<string, []>("op_1030"), val = tensor<int32, [2]>([1, 1])];
            tensor<string, []> pretrained_out_45_pad_type_0 = const()[name = tensor<string, []>("pretrained_out_45_pad_type_0"), val = tensor<string, []>("custom")];
            tensor<int32, [4]> pretrained_out_45_pad_0 = const()[name = tensor<string, []>("pretrained_out_45_pad_0"), val = tensor<int32, [4]>([0, 0, 0, 0])];
            tensor<fp16, [5120, 1280, 1, 1]> layers_3_fc1_pretrained_weight_to_fp16_palettized = constexpr_lut_to_dense()[indices = tensor<uint8, [3276800]>(BLOBFILE(path = tensor<string, []>("@model_path/weights/weight.bin"), offset = tensor<uint64, []>(50101312))), lut = tensor<fp16, [16]>(BLOBFILE(path = tensor<string, []>("@model_path/weights/weight.bin"), offset = tensor<uint64, []>(53378176))), name = tensor<string, []>("layers_3_fc1_pretrained_weight_to_fp16_palettized"), shape = tensor<uint32, [4]>([5120, 1280, 1, 1])];
            tensor<fp16, [5120]> layers_3_fc1_pretrained_bias_to_fp16 = const()[name = tensor<string, []>("layers_3_fc1_pretrained_bias_to_fp16"), val = tensor<fp16, [5120]>(BLOBFILE(path = tensor<string, []>("@model_path/weights/weight.bin"), offset = tensor<uint64, []>(53378304)))];
            tensor<fp16, [1, 5120, 1, 1500]> pretrained_out_45_cast_fp16 = conv(bias = layers_3_fc1_pretrained_bias_to_fp16, dilations = var_1030, groups = var_858, pad = pretrained_out_45_pad_0, pad_type = pretrained_out_45_pad_type_0, strides = var_1028, weight = layers_3_fc1_pretrained_weight_to_fp16_palettized, x = input_71_cast_fp16)[name = tensor<string, []>("pretrained_out_45_cast_fp16")];
            tensor<int32, [2]> var_1034 = const()[name = tensor<string, []>("op_1034"), val = tensor<int32, [2]>([1, 1])];
            tensor<int32, [2]> var_1036 = const()[name = tensor<string, []>("op_1036"), val = tensor<int32, [2]>([1, 1])];
            tensor<string, []> input_73_pad_type_0 = const()[name = tensor<string, []>("input_73_pad_type_0"), val = tensor<string, []>("custom")];
            tensor<int32, [4]> input_73_pad_0 = const()[name = tensor<string, []>("input_73_pad_0"), val = tensor<int32, [4]>([0, 0, 0, 0])];
            tensor<fp16, [16, 1280, 1, 1]> layers_3_fc1_loraA_weight_to_fp16 = const()[name = tensor<string, []>("layers_3_fc1_loraA_weight_to_fp16"), val = tensor<fp16, [16, 1280, 1, 1]>(BLOBFILE(path = tensor<string, []>("@model_path/weights/weight.bin"), offset = tensor<uint64, []>(53388608)))];
            tensor<fp16, [1, 16, 1, 1500]> input_73_cast_fp16 = conv(dilations = var_1036, groups = var_858, pad = input_73_pad_0, pad_type = input_73_pad_type_0, strides = var_1034, weight = layers_3_fc1_loraA_weight_to_fp16, x = input_71_cast_fp16)[name = tensor<string, []>("input_73_cast_fp16")];
            tensor<int32, [2]> var_1040 = const()[name = tensor<string, []>("op_1040"), val = tensor<int32, [2]>([1, 1])];
            tensor<int32, [2]> var_1042 = const()[name = tensor<string, []>("op_1042"), val = tensor<int32, [2]>([1, 1])];
            tensor<string, []> lora_out_89_pad_type_0 = const()[name = tensor<string, []>("lora_out_89_pad_type_0"), val = tensor<string, []>("custom")];
            tensor<int32, [4]> lora_out_89_pad_0 = const()[name = tensor<string, []>("lora_out_89_pad_0"), val = tensor<int32, [4]>([0, 0, 0, 0])];
            tensor<fp16, [5120, 16, 1, 1]> lora_out_91_weight_0_to_fp16 = const()[name = tensor<string, []>("lora_out_91_weight_0_to_fp16"), val = tensor<fp16, [5120, 16, 1, 1]>(BLOBFILE(path = tensor<string, []>("@model_path/weights/weight.bin"), offset = tensor<uint64, []>(53429632)))];
            tensor<fp16, [1, 5120, 1, 1500]> lora_out_91_cast_fp16 = conv(bias = lora_out_19_bias_0_to_fp16, dilations = var_1042, groups = var_858, pad = lora_out_89_pad_0, pad_type = lora_out_89_pad_type_0, strides = var_1040, weight = lora_out_91_weight_0_to_fp16, x = input_73_cast_fp16)[name = tensor<string, []>("lora_out_91_cast_fp16")];
            tensor<fp16, [1, 5120, 1, 1500]> input_75_cast_fp16 = add(x = pretrained_out_45_cast_fp16, y = lora_out_91_cast_fp16)[name = tensor<string, []>("input_75_cast_fp16")];
            tensor<string, []> input_77_mode_0 = const()[name = tensor<string, []>("input_77_mode_0"), val = tensor<string, []>("EXACT")];
            tensor<fp16, [1, 5120, 1, 1500]> input_77_cast_fp16 = gelu(mode = input_77_mode_0, x = input_75_cast_fp16)[name = tensor<string, []>("input_77_cast_fp16")];
            tensor<int32, [2]> var_1054 = const()[name = tensor<string, []>("op_1054"), val = tensor<int32, [2]>([1, 1])];
            tensor<int32, [2]> var_1056 = const()[name = tensor<string, []>("op_1056"), val = tensor<int32, [2]>([1, 1])];
            tensor<string, []> pretrained_out_47_pad_type_0 = const()[name = tensor<string, []>("pretrained_out_47_pad_type_0"), val = tensor<string, []>("custom")];
            tensor<int32, [4]> pretrained_out_47_pad_0 = const()[name = tensor<string, []>("pretrained_out_47_pad_0"), val = tensor<int32, [4]>([0, 0, 0, 0])];
            tensor<fp16, [1280, 5120, 1, 1]> layers_3_fc2_pretrained_weight_to_fp16_palettized = constexpr_lut_to_dense()[indices = tensor<uint8, [3276800]>(BLOBFILE(path = tensor<string, []>("@model_path/weights/weight.bin"), offset = tensor<uint64, []>(53593536))), lut = tensor<fp16, [16]>(BLOBFILE(path = tensor<string, []>("@model_path/weights/weight.bin"), offset = tensor<uint64, []>(56870400))), name = tensor<string, []>("layers_3_fc2_pretrained_weight_to_fp16_palettized"), shape = tensor<uint32, [4]>([1280, 5120, 1, 1])];
            tensor<fp16, [1280]> layers_3_fc2_pretrained_bias_to_fp16 = const()[name = tensor<string, []>("layers_3_fc2_pretrained_bias_to_fp16"), val = tensor<fp16, [1280]>(BLOBFILE(path = tensor<string, []>("@model_path/weights/weight.bin"), offset = tensor<uint64, []>(56870528)))];
            tensor<fp16, [1, 1280, 1, 1500]> pretrained_out_47_cast_fp16 = conv(bias = layers_3_fc2_pretrained_bias_to_fp16, dilations = var_1056, groups = var_858, pad = pretrained_out_47_pad_0, pad_type = pretrained_out_47_pad_type_0, strides = var_1054, weight = layers_3_fc2_pretrained_weight_to_fp16_palettized, x = input_77_cast_fp16)[name = tensor<string, []>("pretrained_out_47_cast_fp16")];
            tensor<int32, [2]> var_1060 = const()[name = tensor<string, []>("op_1060"), val = tensor<int32, [2]>([1, 1])];
            tensor<int32, [2]> var_1062 = const()[name = tensor<string, []>("op_1062"), val = tensor<int32, [2]>([1, 1])];
            tensor<string, []> input_79_pad_type_0 = const()[name = tensor<string, []>("input_79_pad_type_0"), val = tensor<string, []>("custom")];
            tensor<int32, [4]> input_79_pad_0 = const()[name = tensor<string, []>("input_79_pad_0"), val = tensor<int32, [4]>([0, 0, 0, 0])];
            tensor<fp16, [16, 5120, 1, 1]> layers_3_fc2_loraA_weight_to_fp16 = const()[name = tensor<string, []>("layers_3_fc2_loraA_weight_to_fp16"), val = tensor<fp16, [16, 5120, 1, 1]>(BLOBFILE(path = tensor<string, []>("@model_path/weights/weight.bin"), offset = tensor<uint64, []>(56873152)))];
            tensor<fp16, [1, 16, 1, 1500]> input_79_cast_fp16 = conv(dilations = var_1062, groups = var_858, pad = input_79_pad_0, pad_type = input_79_pad_type_0, strides = var_1060, weight = layers_3_fc2_loraA_weight_to_fp16, x = input_77_cast_fp16)[name = tensor<string, []>("input_79_cast_fp16")];
            tensor<int32, [2]> var_1066 = const()[name = tensor<string, []>("op_1066"), val = tensor<int32, [2]>([1, 1])];
            tensor<int32, [2]> var_1068 = const()[name = tensor<string, []>("op_1068"), val = tensor<int32, [2]>([1, 1])];
            tensor<string, []> lora_out_93_pad_type_0 = const()[name = tensor<string, []>("lora_out_93_pad_type_0"), val = tensor<string, []>("custom")];
            tensor<int32, [4]> lora_out_93_pad_0 = const()[name = tensor<string, []>("lora_out_93_pad_0"), val = tensor<int32, [4]>([0, 0, 0, 0])];
            tensor<fp16, [1280, 16, 1, 1]> lora_out_95_weight_0_to_fp16 = const()[name = tensor<string, []>("lora_out_95_weight_0_to_fp16"), val = tensor<fp16, [1280, 16, 1, 1]>(BLOBFILE(path = tensor<string, []>("@model_path/weights/weight.bin"), offset = tensor<uint64, []>(57037056)))];
            tensor<fp16, [1, 1280, 1, 1500]> lora_out_95_cast_fp16 = conv(bias = obj_1_mean_0_to_fp16, dilations = var_1068, groups = var_858, pad = lora_out_93_pad_0, pad_type = lora_out_93_pad_type_0, strides = var_1066, weight = lora_out_95_weight_0_to_fp16, x = input_79_cast_fp16)[name = tensor<string, []>("lora_out_95_cast_fp16")];
            tensor<fp16, [1, 1280, 1, 1500]> hidden_states_11_cast_fp16 = add(x = pretrained_out_47_cast_fp16, y = lora_out_95_cast_fp16)[name = tensor<string, []>("hidden_states_11_cast_fp16")];
            tensor<fp16, [1, 1280, 1, 1500]> inputs_17_cast_fp16 = add(x = inputs_15_cast_fp16, y = hidden_states_11_cast_fp16)[name = tensor<string, []>("inputs_17_cast_fp16")];
            tensor<int32, []> var_1082 = const()[name = tensor<string, []>("op_1082"), val = tensor<int32, []>(3)];
            tensor<int32, []> var_1084 = const()[name = tensor<string, []>("op_1084"), val = tensor<int32, []>(1)];
            tensor<bool, []> var_1085 = const()[name = tensor<string, []>("op_1085"), val = tensor<bool, []>(true)];
            tensor<int32, [1]> var_1095 = const()[name = tensor<string, []>("op_1095"), val = tensor<int32, [1]>([1])];
            tensor<fp16, [1, 1, 1, 1500]> channels_mean_17_cast_fp16 = reduce_mean(axes = var_1095, keep_dims = var_1085, x = inputs_17_cast_fp16)[name = tensor<string, []>("channels_mean_17_cast_fp16")];
            tensor<fp16, [1, 1280, 1, 1500]> zero_mean_17_cast_fp16 = sub(x = inputs_17_cast_fp16, y = channels_mean_17_cast_fp16)[name = tensor<string, []>("zero_mean_17_cast_fp16")];
            tensor<fp16, [1, 1280, 1, 1500]> zero_mean_sq_17_cast_fp16 = mul(x = zero_mean_17_cast_fp16, y = zero_mean_17_cast_fp16)[name = tensor<string, []>("zero_mean_sq_17_cast_fp16")];
            tensor<int32, [1]> var_1099 = const()[name = tensor<string, []>("op_1099"), val = tensor<int32, [1]>([1])];
            tensor<fp16, [1, 1, 1, 1500]> var_1100_cast_fp16 = reduce_mean(axes = var_1099, keep_dims = var_1085, x = zero_mean_sq_17_cast_fp16)[name = tensor<string, []>("op_1100_cast_fp16")];
            tensor<fp16, []> var_1101_to_fp16 = const()[name = tensor<string, []>("op_1101_to_fp16"), val = tensor<fp16, []>(0x1.5p-17)];
            tensor<fp16, [1, 1, 1, 1500]> var_1102_cast_fp16 = add(x = var_1100_cast_fp16, y = var_1101_to_fp16)[name = tensor<string, []>("op_1102_cast_fp16")];
            tensor<fp32, []> denom_17_epsilon_0 = const()[name = tensor<string, []>("denom_17_epsilon_0"), val = tensor<fp32, []>(0x1.197998p-40)];
            tensor<fp16, [1, 1, 1, 1500]> denom_17_cast_fp16 = rsqrt(epsilon = denom_17_epsilon_0, x = var_1102_cast_fp16)[name = tensor<string, []>("denom_17_cast_fp16")];
            tensor<fp16, [1, 1280, 1, 1500]> out_17_cast_fp16 = mul(x = zero_mean_17_cast_fp16, y = denom_17_cast_fp16)[name = tensor<string, []>("out_17_cast_fp16")];
            tensor<fp16, [1280]> obj_17_gamma_0_to_fp16 = const()[name = tensor<string, []>("obj_17_gamma_0_to_fp16"), val = tensor<fp16, [1280]>(BLOBFILE(path = tensor<string, []>("@model_path/weights/weight.bin"), offset = tensor<uint64, []>(57078080)))];
            tensor<fp16, [1280]> obj_17_beta_0_to_fp16 = const()[name = tensor<string, []>("obj_17_beta_0_to_fp16"), val = tensor<fp16, [1280]>(BLOBFILE(path = tensor<string, []>("@model_path/weights/weight.bin"), offset = tensor<uint64, []>(57080704)))];
            tensor<fp16, []> obj_17_epsilon_0_to_fp16 = const()[name = tensor<string, []>("obj_17_epsilon_0_to_fp16"), val = tensor<fp16, []>(0x1.5p-17)];
            tensor<fp16, [1, 1280, 1, 1500]> obj_17_cast_fp16 = batch_norm(beta = obj_17_beta_0_to_fp16, epsilon = obj_17_epsilon_0_to_fp16, gamma = obj_17_gamma_0_to_fp16, mean = obj_1_mean_0_to_fp16, variance = obj_1_variance_0_to_fp16, x = out_17_cast_fp16)[name = tensor<string, []>("obj_17_cast_fp16")];
            tensor<int32, [2]> var_1120 = const()[name = tensor<string, []>("op_1120"), val = tensor<int32, [2]>([1, 1])];
            tensor<int32, [2]> var_1122 = const()[name = tensor<string, []>("op_1122"), val = tensor<int32, [2]>([1, 1])];
            tensor<string, []> pretrained_out_49_pad_type_0 = const()[name = tensor<string, []>("pretrained_out_49_pad_type_0"), val = tensor<string, []>("custom")];
            tensor<int32, [4]> pretrained_out_49_pad_0 = const()[name = tensor<string, []>("pretrained_out_49_pad_0"), val = tensor<int32, [4]>([0, 0, 0, 0])];
            tensor<fp16, [1280, 1280, 1, 1]> layers_4_self_attn_q_proj_pretrained_weight_to_fp16_palettized = constexpr_lut_to_dense()[indices = tensor<uint8, [819200]>(BLOBFILE(path = tensor<string, []>("@model_path/weights/weight.bin"), offset = tensor<uint64, []>(57083328))), lut = tensor<fp16, [16]>(BLOBFILE(path = tensor<string, []>("@model_path/weights/weight.bin"), offset = tensor<uint64, []>(57902592))), name = tensor<string, []>("layers_4_self_attn_q_proj_pretrained_weight_to_fp16_palettized"), shape = tensor<uint32, [4]>([1280, 1280, 1, 1])];
            tensor<fp16, [1280]> layers_4_self_attn_q_proj_pretrained_bias_to_fp16 = const()[name = tensor<string, []>("layers_4_self_attn_q_proj_pretrained_bias_to_fp16"), val = tensor<fp16, [1280]>(BLOBFILE(path = tensor<string, []>("@model_path/weights/weight.bin"), offset = tensor<uint64, []>(57902720)))];
            tensor<fp16, [1, 1280, 1, 1500]> pretrained_out_49_cast_fp16 = conv(bias = layers_4_self_attn_q_proj_pretrained_bias_to_fp16, dilations = var_1122, groups = var_1084, pad = pretrained_out_49_pad_0, pad_type = pretrained_out_49_pad_type_0, strides = var_1120, weight = layers_4_self_attn_q_proj_pretrained_weight_to_fp16_palettized, x = obj_17_cast_fp16)[name = tensor<string, []>("pretrained_out_49_cast_fp16")];
            tensor<int32, [2]> var_1126 = const()[name = tensor<string, []>("op_1126"), val = tensor<int32, [2]>([1, 1])];
            tensor<int32, [2]> var_1128 = const()[name = tensor<string, []>("op_1128"), val = tensor<int32, [2]>([1, 1])];
            tensor<string, []> input_81_pad_type_0 = const()[name = tensor<string, []>("input_81_pad_type_0"), val = tensor<string, []>("custom")];
            tensor<int32, [4]> input_81_pad_0 = const()[name = tensor<string, []>("input_81_pad_0"), val = tensor<int32, [4]>([0, 0, 0, 0])];
…
            tensor<fp16, [1, 1280, 1, 1500]> zero_mean_123_cast_fp16 = sub(x = inputs_123_cast_fp16, y = channels_mean_123_cast_fp16)[name = tensor<string, []>("zero_mean_123_cast_fp16")];
            tensor<fp16, [1, 1280, 1, 1500]> zero_mean_sq_123_cast_fp16 = mul(x = zero_mean_123_cast_fp16, y = zero_mean_123_cast_fp16)[name = tensor<string, []>("zero_mean_sq_123_cast_fp16")];
            tensor<int32, [1]> var_7113 = const()[name = tensor<string, []>("op_7113"), val = tensor<int32, [1]>([1])];
            tensor<fp16, [1, 1, 1, 1500]> var_7114_cast_fp16 = reduce_mean(axes = var_7113, keep_dims = var_6961, x = zero_mean_sq_123_cast_fp16)[name = tensor<string, []>("op_7114_cast_fp16")];
            tensor<fp16, []> var_7115_to_fp16 = const()[name = tensor<string, []>("op_7115_to_fp16"), val = tensor<fp16, []>(0x1.5p-17)];
            tensor<fp16, [1, 1, 1, 1500]> var_7116_cast_fp16 = add(x = var_7114_cast_fp16, y = var_7115_to_fp16)[name = tensor<string, []>("op_7116_cast_fp16")];
            tensor<fp32, []> denom_123_epsilon_0 = const()[name = tensor<string, []>("denom_123_epsilon_0"), val = tensor<fp32, []>(0x1.197998p-40)];
            tensor<fp16, [1, 1, 1, 1500]> denom_123_cast_fp16 = rsqrt(epsilon = denom_123_epsilon_0, x = var_7116_cast_fp16)[name = tensor<string, []>("denom_123_cast_fp16")];
            tensor<fp16, [1, 1280, 1, 1500]> out_123_cast_fp16 = mul(x = zero_mean_123_cast_fp16, y = denom_123_cast_fp16)[name = tensor<string, []>("out_123_cast_fp16")];
            tensor<fp16, [1280]> input_611_gamma_0_to_fp16 = const()[name = tensor<string, []>("input_611_gamma_0_to_fp16"), val = tensor<fp16, [1280]>(BLOBFILE(path = tensor<string, []>("@model_path/weights/weight.bin"), offset = tensor<uint64, []>(336320256)))];
            tensor<fp16, [1280]> input_611_beta_0_to_fp16 = const()[name = tensor<string, []>("input_611_beta_0_to_fp16"), val = tensor<fp16, [1280]>(BLOBFILE(path = tensor<string, []>("@model_path/weights/weight.bin"), offset = tensor<uint64, []>(336322880)))];
            tensor<fp16, []> input_611_epsilon_0_to_fp16 = const()[name = tensor<string, []>("input_611_epsilon_0_to_fp16"), val = tensor<fp16, []>(0x1.5p-17)];
            tensor<fp16, [1, 1280, 1, 1500]> input_611_cast_fp16 = batch_norm(beta = input_611_beta_0_to_fp16, epsilon = input_611_epsilon_0_to_fp16, gamma = input_611_gamma_0_to_fp16, mean = obj_1_mean_0_to_fp16, variance = obj_1_variance_0_to_fp16, x = out_123_cast_fp16)[name = tensor<string, []>("input_611_cast_fp16")];
            tensor<int32, [2]> var_7130 = const()[name = tensor<string, []>("op_7130"), val = tensor<int32, [2]>([1, 1])];
            tensor<int32, [2]> var_7132 = const()[name = tensor<string, []>("op_7132"), val = tensor<int32, [2]>([1, 1])];
            tensor<string, []> pretrained_out_369_pad_type_0 = const()[name = tensor<string, []>("pretrained_out_369_pad_type_0"), val = tensor<string, []>("custom")];
            tensor<int32, [4]> pretrained_out_369_pad_0 = const()[name = tensor<string, []>("pretrained_out_369_pad_0"), val = tensor<int32, [4]>([0, 0, 0, 0])];
            tensor<fp16, [5120, 1280, 1, 1]> layers_30_fc1_pretrained_weight_to_fp16_palettized = constexpr_lut_to_dense()[indices = tensor<uint8, [3276800]>(BLOBFILE(path = tensor<string, []>("@model_path/weights/weight.bin"), offset = tensor<uint64, []>(336325504))), lut = tensor<fp16, [16]>(BLOBFILE(path = tensor<string, []>("@model_path/weights/weight.bin"), offset = tensor<uint64, []>(339602368))), name = tensor<string, []>("layers_30_fc1_pretrained_weight_to_fp16_palettized"), shape = tensor<uint32, [4]>([5120, 1280, 1, 1])];
            tensor<fp16, [5120]> layers_30_fc1_pretrained_bias_to_fp16 = const()[name = tensor<string, []>("layers_30_fc1_pretrained_bias_to_fp16"), val = tensor<fp16, [5120]>(BLOBFILE(path = tensor<string, []>("@model_path/weights/weight.bin"), offset = tensor<uint64, []>(339602496)))];
            tensor<fp16, [1, 5120, 1, 1500]> pretrained_out_369_cast_fp16 = conv(bias = layers_30_fc1_pretrained_bias_to_fp16, dilations = var_7132, groups = var_6960, pad = pretrained_out_369_pad_0, pad_type = pretrained_out_369_pad_type_0, strides = var_7130, weight = layers_30_fc1_pretrained_weight_to_fp16_palettized, x = input_611_cast_fp16)[name = tensor<string, []>("pretrained_out_369_cast_fp16")];
            tensor<int32, [2]> var_7136 = const()[name = tensor<string, []>("op_7136"), val = tensor<int32, [2]>([1, 1])];
            tensor<int32, [2]> var_7138 = const()[name = tensor<string, []>("op_7138"), val = tensor<int32, [2]>([1, 1])];
            tensor<string, []> input_613_pad_type_0 = const()[name = tensor<string, []>("input_613_pad_type_0"), val = tensor<string, []>("custom")];
            tensor<int32, [4]> input_613_pad_0 = const()[name = tensor<string, []>("input_613_pad_0"), val = tensor<int32, [4]>([0, 0, 0, 0])];
            tensor<fp16, [16, 1280, 1, 1]> layers_30_fc1_loraA_weight_to_fp16 = const()[name = tensor<string, []>("layers_30_fc1_loraA_weight_to_fp16"), val = tensor<fp16, [16, 1280, 1, 1]>(BLOBFILE(path = tensor<string, []>("@model_path/weights/weight.bin"), offset = tensor<uint64, []>(339612800)))];
            tensor<fp16, [1, 16, 1, 1500]> input_613_cast_fp16 = conv(dilations = var_7138, groups = var_6960, pad = input_613_pad_0, pad_type = input_613_pad_type_0, strides = var_7136, weight = layers_30_fc1_loraA_weight_to_fp16, x = input_611_cast_fp16)[name = tensor<string, []>("input_613_cast_fp16")];
            tensor<int32, [2]> var_7142 = const()[name = tensor<string, []>("op_7142"), val = tensor<int32, [2]>([1, 1])];
            tensor<int32, [2]> var_7144 = const()[name = tensor<string, []>("op_7144"), val = tensor<int32, [2]>([1, 1])];
            tensor<string, []> lora_out_737_pad_type_0 = const()[name = tensor<string, []>("lora_out_737_pad_type_0"), val = tensor<string, []>("custom")];
            tensor<int32, [4]> lora_out_737_pad_0 = const()[name = tensor<string, []>("lora_out_737_pad_0"), val = tensor<int32, [4]>([0, 0, 0, 0])];
            tensor<fp16, [5120, 16, 1, 1]> lora_out_739_weight_0_to_fp16 = const()[name = tensor<string, []>("lora_out_739_weight_0_to_fp16"), val = tensor<fp16, [5120, 16, 1, 1]>(BLOBFILE(path = tensor<string, []>("@model_path/weights/weight.bin"), offset = tensor<uint64, []>(339653824)))];
            tensor<fp16, [1, 5120, 1, 1500]> lora_out_739_cast_fp16 = conv(bias = lora_out_19_bias_0_to_fp16, dilations = var_7144, groups = var_6960, pad = lora_out_737_pad_0, pad_type = lora_out_737_pad_type_0, strides = var_7142, weight = lora_out_739_weight_0_to_fp16, x = input_613_cast_fp16)[name = tensor<string, []>("lora_out_739_cast_fp16")];
            tensor<fp16, [1, 5120, 1, 1500]> input_615_cast_fp16 = add(x = pretrained_out_369_cast_fp16, y = lora_out_739_cast_fp16)[name = tensor<string, []>("input_615_cast_fp16")];
            tensor<string, []> input_617_mode_0 = const()[name = tensor<string, []>("input_617_mode_0"), val = tensor<string, []>("EXACT")];
            tensor<fp16, [1, 5120, 1, 1500]> input_617_cast_fp16 = gelu(mode = input_617_mode_0, x = input_615_cast_fp16)[name = tensor<string, []>("input_617_cast_fp16")];
            tensor<int32, [2]> var_7156 = const()[name = tensor<string, []>("op_7156"), val = tensor<int32, [2]>([1, 1])];
            tensor<int32, [2]> var_7158 = const()[name = tensor<string, []>("op_7158"), val = tensor<int32, [2]>([1, 1])];
            tensor<string, []> pretrained_out_371_pad_type_0 = const()[name = tensor<string, []>("pretrained_out_371_pad_type_0"), val = tensor<string, []>("custom")];
            tensor<int32, [4]> pretrained_out_371_pad_0 = const()[name = tensor<string, []>("pretrained_out_371_pad_0"), val = tensor<int32, [4]>([0, 0, 0, 0])];
            tensor<fp16, [1280, 5120, 1, 1]> layers_30_fc2_pretrained_weight_to_fp16_palettized = constexpr_lut_to_dense()[indices = tensor<uint8, [3276800]>(BLOBFILE(path = tensor<string, []>("@model_path/weights/weight.bin"), offset = tensor<uint64, []>(339817728))), lut = tensor<fp16, [16]>(BLOBFILE(path = tensor<string, []>("@model_path/weights/weight.bin"), offset = tensor<uint64, []>(343094592))), name = tensor<string, []>("layers_30_fc2_pretrained_weight_to_fp16_palettized"), shape = tensor<uint32, [4]>([1280, 5120, 1, 1])];
            tensor<fp16, [1280]> layers_30_fc2_pretrained_bias_to_fp16 = const()[name = tensor<string, []>("layers_30_fc2_pretrained_bias_to_fp16"), val = tensor<fp16, [1280]>(BLOBFILE(path = tensor<string, []>("@model_path/weights/weight.bin"), offset = tensor<uint64, []>(343094720)))];
            tensor<fp16, [1, 1280, 1, 1500]> pretrained_out_371_cast_fp16 = conv(bias = layers_30_fc2_pretrained_bias_to_fp16, dilations = var_7158, groups = var_6960, pad = pretrained_out_371_pad_0, pad_type = pretrained_out_371_pad_type_0, strides = var_7156, weight = layers_30_fc2_pretrained_weight_to_fp16_palettized, x = input_617_cast_fp16)[name = tensor<string, []>("pretrained_out_371_cast_fp16")];
            tensor<int32, [2]> var_7162 = const()[name = tensor<string, []>("op_7162"), val = tensor<int32, [2]>([1, 1])];
            tensor<int32, [2]> var_7164 = const()[name = tensor<string, []>("op_7164"), val = tensor<int32, [2]>([1, 1])];
            tensor<string, []> input_619_pad_type_0 = const()[name = tensor<string, []>("input_619_pad_type_0"), val = tensor<string, []>("custom")];
            tensor<int32, [4]> input_619_pad_0 = const()[name = tensor<string, []>("input_619_pad_0"), val = tensor<int32, [4]>([0, 0, 0, 0])];
            tensor<fp16, [16, 5120, 1, 1]> layers_30_fc2_loraA_weight_to_fp16 = const()[name = tensor<string, []>("layers_30_fc2_loraA_weight_to_fp16"), val = tensor<fp16, [16, 5120, 1, 1]>(BLOBFILE(path = tensor<string, []>("@model_path/weights/weight.bin"), offset = tensor<uint64, []>(343097344)))];
            tensor<fp16, [1, 16, 1, 1500]> input_619_cast_fp16 = conv(dilations = var_7164, groups = var_6960, pad = input_619_pad_0, pad_type = input_619_pad_type_0, strides = var_7162, weight = layers_30_fc2_loraA_weight_to_fp16, x = input_617_cast_fp16)[name = tensor<string, []>("input_619_cast_fp16")];
            tensor<int32, [2]> var_7168 = const()[name = tensor<string, []>("op_7168"), val = tensor<int32, [2]>([1, 1])];
            tensor<int32, [2]> var_7170 = const()[name = tensor<string, []>("op_7170"), val = tensor<int32, [2]>([1, 1])];
            tensor<string, []> lora_out_741_pad_type_0 = const()[name = tensor<string, []>("lora_out_741_pad_type_0"), val = tensor<string, []>("custom")];
            tensor<int32, [4]> lora_out_741_pad_0 = const()[name = tensor<string, []>("lora_out_741_pad_0"), val = tensor<int32, [4]>([0, 0, 0, 0])];
            tensor<fp16, [1280, 16, 1, 1]> lora_out_743_weight_0_to_fp16 = const()[name = tensor<string, []>("lora_out_743_weight_0_to_fp16"), val = tensor<fp16, [1280, 16, 1, 1]>(BLOBFILE(path = tensor<string, []>("@model_path/weights/weight.bin"), offset = tensor<uint64, []>(343261248)))];
            tensor<fp16, [1, 1280, 1, 1500]> lora_out_743_cast_fp16 = conv(bias = obj_1_mean_0_to_fp16, dilations = var_7170, groups = var_6960, pad = lora_out_741_pad_0, pad_type = lora_out_741_pad_type_0, strides = var_7168, weight = lora_out_743_weight_0_to_fp16, x = input_619_cast_fp16)[name = tensor<string, []>("lora_out_743_cast_fp16")];
            tensor<fp16, [1, 1280, 1, 1500]> hidden_states_65_cast_fp16 = add(x = pretrained_out_371_cast_fp16, y = lora_out_743_cast_fp16)[name = tensor<string, []>("hidden_states_65_cast_fp16")];
            tensor<fp16, [1, 1280, 1, 1500]> inputs_125_cast_fp16 = add(x = inputs_123_cast_fp16, y = hidden_states_65_cast_fp16)[name = tensor<string, []>("inputs_125_cast_fp16")];
            tensor<int32, []> var_7184 = const()[name = tensor<string, []>("op_7184"), val = tensor<int32, []>(3)];
            tensor<int32, []> var_7186 = const()[name = tensor<string, []>("op_7186"), val = tensor<int32, []>(1)];
            tensor<bool, []> var_7187 = const()[name = tensor<string, []>("op_7187"), val = tensor<bool, []>(true)];
            tensor<int32, [1]> var_7197 = const()[name = tensor<string, []>("op_7197"), val = tensor<int32, [1]>([1])];
            tensor<fp16, [1, 1, 1, 1500]> channels_mean_125_cast_fp16 = reduce_mean(axes = var_7197, keep_dims = var_7187, x = inputs_125_cast_fp16)[name = tensor<string, []>("channels_mean_125_cast_fp16")];
            tensor<fp16, [1, 1280, 1, 1500]> zero_mean_125_cast_fp16 = sub(x = inputs_125_cast_fp16, y = channels_mean_125_cast_fp16)[name = tensor<string, []>("zero_mean_125_cast_fp16")];
            tensor<fp16, [1, 1280, 1, 1500]> zero_mean_sq_125_cast_fp16 = mul(x = zero_mean_125_cast_fp16, y = zero_mean_125_cast_fp16)[name = tensor<string, []>("zero_mean_sq_125_cast_fp16")];
            tensor<int32, [1]> var_7201 = const()[name = tensor<string, []>("op_7201"), val = tensor<int32, [1]>([1])];
            tensor<fp16, [1, 1, 1, 1500]> var_7202_cast_fp16 = reduce_mean(axes = var_7201, keep_dims = var_7187, x = zero_mean_sq_125_cast_fp16)[name = tensor<string, []>("op_7202_cast_fp16")];
            tensor<fp16, []> var_7203_to_fp16 = const()[name = tensor<string, []>("op_7203_to_fp16"), val = tensor<fp16, []>(0x1.5p-17)];
            tensor<fp16, [1, 1, 1, 1500]> var_7204_cast_fp16 = add(x = var_7202_cast_fp16, y = var_7203_to_fp16)[name = tensor<string, []>("op_7204_cast_fp16")];
            tensor<fp32, []> denom_125_epsilon_0 = const()[name = tensor<string, []>("denom_125_epsilon_0"), val = tensor<fp32, []>(0x1.197998p-40)];
            tensor<fp16, [1, 1, 1, 1500]> denom_125_cast_fp16 = rsqrt(epsilon = denom_125_epsilon_0, x = var_7204_cast_fp16)[name = tensor<string, []>("denom_125_cast_fp16")];
            tensor<fp16, [1, 1280, 1, 1500]> out_125_cast_fp16 = mul(x = zero_mean_125_cast_fp16, y = denom_125_cast_fp16)[name = tensor<string, []>("out_125_cast_fp16")];
            tensor<fp16, [1280]> obj_125_gamma_0_to_fp16 = const()[name = tensor<string, []>("obj_125_gamma_0_to_fp16"), val = tensor<fp16, [1280]>(BLOBFILE(path = tensor<string, []>("@model_path/weights/weight.bin"), offset = tensor<uint64, []>(343302272)))];
            tensor<fp16, [1280]> obj_125_beta_0_to_fp16 = const()[name = tensor<string, []>("obj_125_beta_0_to_fp16"), val = tensor<fp16, [1280]>(BLOBFILE(path = tensor<string, []>("@model_path/weights/weight.bin"), offset = tensor<uint64, []>(343304896)))];
            tensor<fp16, []> obj_125_epsilon_0_to_fp16 = const()[name = tensor<string, []>("obj_125_epsilon_0_to_fp16"), val = tensor<fp16, []>(0x1.5p-17)];
            tensor<fp16, [1, 1280, 1, 1500]> obj_125_cast_fp16 = batch_norm(beta = obj_125_beta_0_to_fp16, epsilon = obj_125_epsilon_0_to_fp16, gamma = obj_125_gamma_0_to_fp16, mean = obj_1_mean_0_to_fp16, variance = obj_1_variance_0_to_fp16, x = out_125_cast_fp16)[name = tensor<string, []>("obj_125_cast_fp16")];
            tensor<int32, [2]> var_7222 = const()[name = tensor<string, []>("op_7222"), val = tensor<int32, [2]>([1, 1])];
            tensor<int32, [2]> var_7224 = const()[name = tensor<string, []>("op_7224"), val = tensor<int32, [2]>([1, 1])];
            tensor<string, []> pretrained_out_373_pad_type_0 = const()[name = tensor<string, []>("pretrained_out_373_pad_type_0"), val = tensor<string, []>("custom")];
            tensor<int32, [4]> pretrained_out_373_pad_0 = const()[name = tensor<string, []>("pretrained_out_373_pad_0"), val = tensor<int32, [4]>([0, 0, 0, 0])];
            tensor<fp16, [1280, 1280, 1, 1]> layers_31_self_attn_q_proj_pretrained_weight_to_fp16_palettized = constexpr_lut_to_dense()[indices = tensor<uint8, [819200]>(BLOBFILE(path = tensor<string, []>("@model_path/weights/weight.bin"), offset = tensor<uint64, []>(343307520))), lut = tensor<fp16, [16]>(BLOBFILE(path = tensor<string, []>("@model_path/weights/weight.bin"), offset = tensor<uint64, []>(344126784))), name = tensor<string, []>("layers_31_self_attn_q_proj_pretrained_weight_to_fp16_palettized"), shape = tensor<uint32, [4]>([1280, 1280, 1, 1])];
            tensor<fp16, [1280]> layers_31_self_attn_q_proj_pretrained_bias_to_fp16 = const()[name = tensor<string, []>("layers_31_self_attn_q_proj_pretrained_bias_to_fp16"), val = tensor<fp16, [1280]>(BLOBFILE(path = tensor<string, []>("@model_path/weights/weight.bin"), offset = tensor<uint64, []>(344126912)))];
            tensor<fp16, [1, 1280, 1, 1500]> pretrained_out_373_cast_fp16 = conv(bias = layers_31_self_attn_q_proj_pretrained_bias_to_fp16, dilations = var_7224, groups = var_7186, pad = pretrained_out_373_pad_0, pad_type = pretrained_out_373_pad_type_0, strides = var_7222, weight = layers_31_self_attn_q_proj_pretrained_weight_to_fp16_palettized, x = obj_125_cast_fp16)[name = tensor<string, []>("pretrained_out_373_cast_fp16")];
            tensor<int32, [2]> var_7228 = const()[name = tensor<string, []>("op_7228"), val = tensor<int32, [2]>([1, 1])];
            tensor<int32, [2]> var_7230 = const()[name = tensor<string, []>("op_7230"), val = tensor<int32, [2]>([1, 1])];
            tensor<string, []> input_621_pad_type_0 = const()[name = tensor<string, []>("input_621_pad_type_0"), val = tensor<string, []>("custom")];
            tensor<int32, [4]> input_621_pad_0 = const()[name = tensor<string, []>("input_621_pad_0"), val = tensor<int32, [4]>([0, 0, 0, 0])];
            tensor<fp16, [16, 1280, 1, 1]> layers_31_self_attn_q_proj_loraA_weight_to_fp16 = const()[name = tensor<string, []>("layers_31_self_attn_q_proj_loraA_weight_to_fp16"), val = tensor<fp16, [16, 1280, 1, 1]>(BLOBFILE(path = tensor<string, []>("@model_path/weights/weight.bin"), offset = tensor<uint64, []>(344129536)))];
            tensor<fp16, [1, 16, 1, 1500]> input_621_cast_fp16 = conv(dilations = var_7230, groups = var_7186, pad = input_621_pad_0, pad_type = input_621_pad_type_0, strides = var_7228, weight = layers_31_self_attn_q_proj_loraA_weight_to_fp16, x = obj_125_cast_fp16)[name = tensor<string, []>("input_621_cast_fp16")];
            tensor<int32, [2]> var_7234 = const()[name = tensor<string, []>("op_7234"), val = tensor<int32, [2]>([1, 1])];
            tensor<int32, [2]> var_7236 = const()[name = tensor<string, []>("op_7236"), val = tensor<int32, [2]>([1, 1])];
            tensor<string, []> lora_out_745_pad_type_0 = const()[name = tensor<string, []>("lora_out_745_pad_type_0"), val = tensor<string, []>("custom")];
            tensor<int32, [4]> lora_out_745_pad_0 = const()[name = tensor<string, []>("lora_out_745_pad_0"), val = tensor<int32, [4]>([0, 0, 0, 0])];
            tensor<fp16, [1280, 16, 1, 1]> lora_out_747_weight_0_to_fp16 = const()[name = tensor<string, []>("lora_out_747_weight_0_to_fp16"), val = tensor<fp16, [1280, 16, 1, 1]>(BLOBFILE(path = tensor<string, []>("@model_path/weights/weight.bin"), offset = tensor<uint64, []>(344170560)))];
            tensor<fp16, [1, 1280, 1, 1500]> lora_out_747_cast_fp16 = conv(bias = obj_1_mean_0_to_fp16, dilations = var_7236, groups = var_7186, pad = lora_out_745_pad_0, pad_type = lora_out_745_pad_type_0, strides = var_7234, weight = lora_out_747_weight_0_to_fp16, x = input_621_cast_fp16)[name = tensor<string, []>("lora_out_747_cast_fp16")];
            tensor<fp16, [1, 1280, 1, 1500]> query_cast_fp16 = add(x = pretrained_out_373_cast_fp16, y = lora_out_747_cast_fp16)[name = tensor<string, []>("query_cast_fp16")];
            tensor<int32, [2]> var_7246 = const()[name = tensor<string, []>("op_7246"), val = tensor<int32, [2]>([1, 1])];
            tensor<int32, [2]> var_7248 = const()[name = tensor<string, []>("op_7248"), val = tensor<int32, [2]>([1, 1])];
            tensor<string, []> pretrained_out_375_pad_type_0 = const()[name = tensor<string, []>("pretrained_out_375_pad_type_0"), val = tensor<string, []>("custom")];
            tensor<int32, [4]> pretrained_out_375_pad_0 = const()[name = tensor<string, []>("pretrained_out_375_pad_0"), val = tensor<int32, [4]>([0, 0, 0, 0])];
            tensor<fp16, [1280, 1280, 1, 1]> layers_31_self_attn_k_proj_pretrained_weight_to_fp16_palettized = constexpr_lut_to_dense()[indices = tensor<uint8, [819200]>(BLOBFILE(path = tensor<string, []>("@model_path/weights/weight.bin"), offset = tensor<uint64, []>(344211584))), lut = tensor<fp16, [16]>(BLOBFILE(path = tensor<string, []>("@model_path/weights/weight.bin"), offset = tensor<uint64, []>(345030848))), name = tensor<string, []>("layers_31_self_attn_k_proj_pretrained_weight_to_fp16_palettized"), shape = tensor<uint32, [4]>([1280, 1280, 1, 1])];
            tensor<fp16, [1, 1280, 1, 1500]> pretrained_out_375_cast_fp16 = conv(dilations = var_7248, groups = var_7186, pad = pretrained_out_375_pad_0, pad_type = pretrained_out_375_pad_type_0, strides = var_7246, weight = layers_31_self_attn_k_proj_pretrained_weight_to_fp16_palettized, x = obj_125_cast_fp16)[name = tensor<string, []>("pretrained_out_375_cast_fp16")];
            tensor<int32, [2]> var_7252 = const()[name = tensor<string, []>("op_7252"), val = tensor<int32, [2]>([1, 1])];
            tensor<int32, [2]> var_7254 = const()[name = tensor<string, []>("op_7254"), val = tensor<int32, [2]>([1, 1])];
            tensor<string, []> input_623_pad_type_0 = const()[name = tensor<string, []>("input_623_pad_type_0"), val = tensor<string, []>("custom")];
            tensor<int32, [4]> input_623_pad_0 = const()[name = tensor<string, []>("input_623_pad_0"), val = tensor<int32, [4]>([0, 0, 0, 0])];
            tensor<fp16, [16, 1280, 1, 1]> layers_31_self_attn_k_proj_loraA_weight_to_fp16 = const()[name = tensor<string, []>("layers_31_self_attn_k_proj_loraA_weight_to_fp16"), val = tensor<fp16, [16, 1280, 1, 1]>(BLOBFILE(path = tensor<string, []>("@model_path/weights/weight.bin"), offset = tensor<uint64, []>(345030976)))];
            tensor<fp16, [1, 16, 1, 1500]> input_623_cast_fp16 = conv(dilations = var_7254, groups = var_7186, pad = input_623_pad_0, pad_type = input_623_pad_type_0, strides = var_7252, weight = layers_31_self_attn_k_proj_loraA_weight_to_fp16, x = obj_125_cast_fp16)[name = tensor<string, []>("input_623_cast_fp16")];
            tensor<int32, [2]> var_7258 = const()[name = tensor<string, []>("op_7258"), val = tensor<int32, [2]>([1, 1])];
            tensor<int32, [2]> var_7260 = const()[name = tensor<string, []>("op_7260"), val = tensor<int32, [2]>([1, 1])];
            tensor<string, []> lora_out_749_pad_type_0 = const()[name = tensor<string, []>("lora_out_749_pad_type_0"), val = tensor<string, []>("custom")];
            tensor<int32, [4]> lora_out_749_pad_0 = const()[name = tensor<string, []>("lora_out_749_pad_0"), val = tensor<int32, [4]>([0, 0, 0, 0])];
            tensor<fp16, [1280, 16, 1, 1]> lora_out_751_weight_0_to_fp16 = const()[name = tensor<string, []>("lora_out_751_weight_0_to_fp16"), val = tensor<fp16, [1280, 16, 1, 1]>(BLOBFILE(path = tensor<string, []>("@model_path/weights/weight.bin"), offset = tensor<uint64, []>(345072000)))];
            tensor<fp16, [1, 1280, 1, 1500]> lora_out_751_cast_fp16 = conv(bias = obj_1_mean_0_to_fp16, dilations = var_7260, groups = var_7186, pad = lora_out_749_pad_0, pad_type = lora_out_749_pad_type_0, strides = var_7258, weight = lora_out_751_weight_0_to_fp16, x = input_623_cast_fp16)[name = tensor<string, []>("lora_out_751_cast_fp16")];
            tensor<fp16, [1, 1280, 1, 1500]> key_cast_fp16 = add(x = pretrained_out_375_cast_fp16, y = lora_out_751_cast_fp16)[name = tensor<string, []>("key_cast_fp16")];
            tensor<int32, [2]> var_7271 = const()[name = tensor<string, []>("op_7271"), val = tensor<int32, [2]>([1, 1])];
            tensor<int32, [2]> var_7273 = const()[name = tensor<string, []>("op_7273"), val = tensor<int32, [2]>([1, 1])];
            tensor<string, []> pretrained_out_377_pad_type_0 = const()[name = tensor<string, []>("pretrained_out_377_pad_type_0"), val = tensor<string, []>("custom")];
            tensor<int32, [4]> pretrained_out_377_pad_0 = const()[name = tensor<string, []>("pretrained_out_377_pad_0"), val = tensor<int32, [4]>([0, 0, 0, 0])];
            tensor<fp16, [1280, 1280, 1, 1]> layers_31_self_attn_v_proj_pretrained_weight_to_fp16_palettized = constexpr_lut_to_dense()[indices = tensor<uint8, [819200]>(BLOBFILE(path = tensor<string, []>("@model_path/weights/weight.bin"), offset = tensor<uint64, []>(345113024))), lut = tensor<fp16, [16]>(BLOBFILE(path = tensor<string, []>("@model_path/weights/weight.bin"), offset = tensor<uint64, []>(345932288))), name = tensor<string, []>("layers_31_self_attn_v_proj_pretrained_weight_to_fp16_palettized"), shape = tensor<uint32, [4]>([1280, 1280, 1, 1])];
            tensor<fp16, [1280]> layers_31_self_attn_v_proj_pretrained_bias_to_fp16 = const()[name = tensor<string, []>("layers_31_self_attn_v_proj_pretrained_bias_to_fp16"), val = tensor<fp16, [1280]>(BLOBFILE(path = tensor<string, []>("@model_path/weights/weight.bin"), offset = tensor<uint64, []>(345932416)))];
            tensor<fp16, [1, 1280, 1, 1500]> pretrained_out_377_cast_fp16 = conv(bias = layers_31_self_attn_v_proj_pretrained_bias_to_fp16, dilations = var_7273, groups = var_7186, pad = pretrained_out_377_pad_0, pad_type = pretrained_out_377_pad_type_0, strides = var_7271, weight = layers_31_self_attn_v_proj_pretrained_weight_to_fp16_palettized, x = obj_125_cast_fp16)[name = tensor<string, []>("pretrained_out_377_cast_fp16")];
            tensor<int32, [2]> var_7277 = const()[name = tensor<string, []>("op_7277"), val = tensor<int32, [2]>([1, 1])];
            tensor<int32, [2]> var_7279 = const()[name = tensor<string, []>("op_7279"), val = tensor<int32, [2]>([1, 1])];
            tensor<string, []> input_625_pad_type_0 = const()[name = tensor<string, []>("input_625_pad_type_0"), val = tensor<string, []>("custom")];
            tensor<int32, [4]> input_625_pad_0 = const()[name = tensor<string, []>("input_625_pad_0"), val = tensor<int32, [4]>([0, 0, 0, 0])];
            tensor<fp16, [16, 1280, 1, 1]> layers_31_self_attn_v_proj_loraA_weight_to_fp16 = const()[name = tensor<string, []>("layers_31_self_attn_v_proj_loraA_weight_to_fp16"), val = tensor<fp16, [16, 1280, 1, 1]>(BLOBFILE(path = tensor<string, []>("@model_path/weights/weight.bin"), offset = tensor<uint64, []>(345935040)))];
            tensor<fp16, [1, 16, 1, 1500]> input_625_cast_fp16 = conv(dilations = var_7279, groups = var_7186, pad = input_625_pad_0, pad_type = input_625_pad_type_0, strides = var_7277, weight = layers_31_self_attn_v_proj_loraA_weight_to_fp16, x = obj_125_cast_fp16)[name = tensor<string, []>("input_625_cast_fp16")];
            tensor<int32, [2]> var_7283 = const()[name = tensor<string, []>("op_7283"), val = tensor<int32, [2]>([1, 1])];
            tensor<int32, [2]> var_7285 = const()[name = tensor<string, []>("op_7285"), val = tensor<int32, [2]>([1, 1])];
            tensor<string, []> lora_out_753_pad_type_0 = const()[name = tensor<string, []>("lora_out_753_pad_type_0"), val = tensor<string, []>("custom")];
            tensor<int32, [4]> lora_out_753_pad_0 = const()[name = tensor<string, []>("lora_out_753_pad_0"), val = tensor<int32, [4]>([0, 0, 0, 0])];
            tensor<fp16, [1280, 16, 1, 1]> lora_out_755_weight_0_to_fp16 = const()[name = tensor<string, []>("lora_out_755_weight_0_to_fp16"), val = tensor<fp16, [1280, 16, 1, 1]>(BLOBFILE(path = tensor<string, []>("@model_path/weights/weight.bin"), offset = tensor<uint64, []>(345976064)))];
            tensor<fp16, [1, 1280, 1, 1500]> lora_out_755_cast_fp16 = conv(bias = obj_1_mean_0_to_fp16, dilations = var_7285, groups = var_7186, pad = lora_out_753_pad_0, pad_type = lora_out_753_pad_type_0, strides = var_7283, weight = lora_out_755_weight_0_to_fp16, x = input_625_cast_fp16)[name = tensor<string, []>("lora_out_755_cast_fp16")];
            tensor<fp16, [1, 1280, 1, 1500]> value_cast_fp16 = add(x = pretrained_out_377_cast_fp16, y = lora_out_755_cast_fp16)[name = tensor<string, []>("value_cast_fp16")];
            tensor<int32, [4]> var_7292 = const()[name = tensor<string, []>("op_7292"), val = tensor<int32, [4]>([1, 20, 64, -1])];
            tensor<fp16, [1, 20, 64, 1500]> var_7293_cast_fp16 = reshape(shape = var_7292, x = query_cast_fp16)[name = tensor<string, []>("op_7293_cast_fp16")];
            tensor<fp16, []> var_7294_to_fp16 = const()[name = tensor<string, []>("op_7294_to_fp16"), val = tensor<fp16, []>(0x1p-3)];
            tensor<fp16, [1, 20, 64, 1500]> var_7295_cast_fp16 = mul(x = var_7293_cast_fp16, y = var_7294_to_fp16)[name = tensor<string, []>("op_7295_cast_fp16")];
            tensor<int32, [4]> var_7296 = const()[name = tensor<string, []>("op_7296"), val = tensor<int32, [4]>([1, 20, 64, -1])];
            tensor<fp16, [1, 20, 64, 1500]> var_7297_cast_fp16 = reshape(shape = var_7296, x = key_cast_fp16)[name = tensor<string, []>("op_7297_cast_fp16")];
            tensor<bool, []> mh_w_transpose_x_0 = const()[name = tensor<string, []>("mh_w_transpose_x_0"), val = tensor<bool, []>(true)];
            tensor<bool, []> mh_w_transpose_y_0 = const()[name = tensor<string, []>("mh_w_transpose_y_0"), val = tensor<bool, []>(false)];
            tensor<fp16, [1, 20, 1500, 1500]> mh_w_cast_fp16 = matmul(transpose_x = mh_w_transpose_x_0, transpose_y = mh_w_transpose_y_0, x = var_7295_cast_fp16, y = var_7297_cast_fp16)[name = tensor<string, []>("mh_w_cast_fp16")];
            tensor<fp16, [1, 20, 1500, 1500]> var_7300_cast_fp16 = softmax(axis = var_7184, x = mh_w_cast_fp16)[name = tensor<string, []>("op_7300_cast_fp16")];
            tensor<int32, [4]> var_7301 = const()[name = tensor<string, []>("op_7301"), val = tensor<int32, [4]>([1, 20, 64, -1])];
            tensor<fp16, [1, 20, 64, 1500]> var_7302_cast_fp16 = reshape(shape = var_7301, x = value_cast_fp16)[name = tensor<string, []>("op_7302_cast_fp16")];
            tensor<bool, []> attn_transpose_x_0 = const()[name = tensor<string, []>("attn_transpose_x_0"), val = tensor<bool, []>(false)];
            tensor<bool, []> attn_transpose_y_0 = const()[name = tensor<string, []>("attn_transpose_y_0"), val = tensor<bool, []>(true)];
            tensor<fp16, [1, 20, 64, 1500]> attn_cast_fp16 = matmul(transpose_x = attn_transpose_x_0, transpose_y = attn_transpose_y_0, x = var_7302_cast_fp16, y = var_7300_cast_fp16)[name = tensor<string, []>("attn_cast_fp16")];
            tensor<int32, [4]> var_7305 = const()[name = tensor<string, []>("op_7305"), val = tensor<int32, [4]>([1, 1280, 1, -1])];
            tensor<fp16, [1, 1280, 1, 1500]> input_627_cast_fp16 = reshape(shape = var_7305, x = attn_cast_fp16)[name = tensor<string, []>("input_627_cast_fp16")];
            tensor<int32, [2]> var_7312 = const()[name = tensor<string, []>("op_7312"), val = tensor<int32, [2]>([1, 1])];
            tensor<int32, [2]> var_7314 = const()[name = tensor<string, []>("op_7314"), val = tensor<int32, [2]>([1, 1])];
            tensor<string, []> pretrained_out_379_pad_type_0 = const()[name = tensor<string, []>("pretrained_out_379_pad_type_0"), val = tensor<string, []>("custom")];
            tensor<int32, [4]> pretrained_out_379_pad_0 = const()[name = tensor<string, []>("pretrained_out_379_pad_0"), val = tensor<int32, [4]>([0, 0, 0, 0])];
            tensor<fp16, [1280, 1280, 1, 1]> layers_31_self_attn_o_proj_pretrained_weight_to_fp16_palettized = constexpr_lut_to_dense()[indices = tensor<uint8, [819200]>(BLOBFILE(path = tensor<string, []>("@model_path/weights/weight.bin"), offset = tensor<uint64, []>(346017088))), lut = tensor<fp16, [16]>(BLOBFILE(path = tensor<string, []>("@model_path/weights/weight.bin"), offset = tensor<uint64, []>(346836352))), name = tensor<string, []>("layers_31_self_attn_o_proj_pretrained_weight_to_fp16_palettized"), shape = tensor<uint32, [4]>([1280, 1280, 1, 1])];
            tensor<fp16, [1280]> layers_31_self_attn_o_proj_pretrained_bias_to_fp16 = const()[name = tensor<string, []>("layers_31_self_attn_o_proj_pretrained_bias_to_fp16"), val = tensor<fp16, [1280]>(BLOBFILE(path = tensor<string, []>("@model_path/weights/weight.bin"), offset = tensor<uint64, []>(346836480)))];
            tensor<fp16, [1, 1280, 1, 1500]> pretrained_out_379_cast_fp16 = conv(bias = layers_31_self_attn_o_proj_pretrained_bias_to_fp16, dilations = var_7314, groups = var_7186, pad = pretrained_out_379_pad_0, pad_type = pretrained_out_379_pad_type_0, strides = var_7312, weight = layers_31_self_attn_o_proj_pretrained_weight_to_fp16_palettized, x = input_627_cast_fp16)[name = tensor<string, []>("pretrained_out_379_cast_fp16")];
            tensor<int32, [2]> var_7318 = const()[name = tensor<string, []>("op_7318"), val = tensor<int32, [2]>([1, 1])];
            tensor<int32, [2]> var_7320 = const()[name = tensor<string, []>("op_7320"), val = tensor<int32, [2]>([1, 1])];
            tensor<string, []> input_629_pad_type_0 = const()[name = tensor<string, []>("input_629_pad_type_0"), val = tensor<string, []>("custom")];
            tensor<int32, [4]> input_629_pad_0 = const()[name = tensor<string, []>("input_629_pad_0"), val = tensor<int32, [4]>([0, 0, 0, 0])];
            tensor<fp16, [16, 1280, 1, 1]> layers_31_self_attn_o_proj_loraA_weight_to_fp16 = const()[name = tensor<string, []>("layers_31_self_attn_o_proj_loraA_weight_to_fp16"), val = tensor<fp16, [16, 1280, 1, 1]>(BLOBFILE(path = tensor<string, []>("@model_path/weights/weight.bin"), offset = tensor<uint64, []>(346839104)))];
            tensor<fp16, [1, 16, 1, 1500]> input_629_cast_fp16 = conv(dilations = var_7320, groups = var_7186, pad = input_629_pad_0, pad_type = input_629_pad_type_0, strides = var_7318, weight = layers_31_self_attn_o_proj_loraA_weight_to_fp16, x = input_627_cast_fp16)[name = tensor<string, []>("input_629_cast_fp16")];
            tensor<int32, [2]> var_7324 = const()[name = tensor<string, []>("op_7324"), val = tensor<int32, [2]>([1, 1])];
            tensor<int32, [2]> var_7326 = const()[name = tensor<string, []>("op_7326"), val = tensor<int32, [2]>([1, 1])];
            tensor<string, []> lora_out_757_pad_type_0 = const()[name = tensor<string, []>("lora_out_757_pad_type_0"), val = tensor<string, []>("custom")];
            tensor<int32, [4]> lora_out_757_pad_0 = const()[name = tensor<string, []>("lora_out_757_pad_0"), val = tensor<int32, [4]>([0, 0, 0, 0])];
            tensor<fp16, [1280, 16, 1, 1]> lora_out_759_weight_0_to_fp16 = const()[name = tensor<string, []>("lora_out_759_weight_0_to_fp16"), val = tensor<fp16, [1280, 16, 1, 1]>(BLOBFILE(path = tensor<string, []>("@model_path/weights/weight.bin"), offset = tensor<uint64, []>(346880128)))];
            tensor<fp16, [1, 1280, 1, 1500]> lora_out_759_cast_fp16 = conv(bias = obj_1_mean_0_to_fp16, dilations = var_7326, groups = var_7186, pad = lora_out_757_pad_0, pad_type = lora_out_757_pad_type_0, strides = var_7324, weight = lora_out_759_weight_0_to_fp16, x = input_629_cast_fp16)[name = tensor<string, []>("lora_out_759_cast_fp16")];
            tensor<fp16, [1, 1280, 1, 1500]> obj_cast_fp16 = add(x = pretrained_out_379_cast_fp16, y = lora_out_759_cast_fp16)[name = tensor<string, []>("obj_cast_fp16")];
            tensor<fp16, [1, 1280, 1, 1500]> inputs_127_cast_fp16 = add(x = inputs_125_cast_fp16, y = obj_cast_fp16)[name = tensor<string, []>("inputs_127_cast_fp16")];
            tensor<int32, [1]> var_7335 = const()[name = tensor<string, []>("op_7335"), val = tensor<int32, [1]>([1])];
            tensor<fp16, [1, 1, 1, 1500]> channels_mean_127_cast_fp16 = reduce_mean(axes = var_7335, keep_dims = var_7187, x = inputs_127_cast_fp16)[name = tensor<string, []>("channels_mean_127_cast_fp16")];
            tensor<fp16, [1, 1280, 1, 1500]> zero_mean_127_cast_fp16 = sub(x = inputs_127_cast_fp16, y = channels_mean_127_cast_fp16)[name = tensor<string, []>("zero_mean_127_cast_fp16")];
            tensor<fp16, [1, 1280, 1, 1500]> zero_mean_sq_127_cast_fp16 = mul(x = zero_mean_127_cast_fp16, y = zero_mean_127_cast_fp16)[name = tensor<string, []>("zero_mean_sq_127_cast_fp16")];
            tensor<int32, [1]> var_7339 = const()[name = tensor<string, []>("op_7339"), val = tensor<int32, [1]>([1])];
            tensor<fp16, [1, 1, 1, 1500]> var_7340_cast_fp16 = reduce_mean(axes = var_7339, keep_dims = var_7187, x = zero_mean_sq_127_cast_fp16)[name = tensor<string, []>("op_7340_cast_fp16")];
            tensor<fp16, []> var_7341_to_fp16 = const()[name = tensor<string, []>("op_7341_to_fp16"), val = tensor<fp16, []>(0x1.5p-17)];
            tensor<fp16, [1, 1, 1, 1500]> var_7342_cast_fp16 = add(x = var_7340_cast_fp16, y = var_7341_to_fp16)[name = tensor<string, []>("op_7342_cast_fp16")];
            tensor<fp32, []> denom_127_epsilon_0 = const()[name = tensor<string, []>("denom_127_epsilon_0"), val = tensor<fp32, []>(0x1.197998p-40)];
            tensor<fp16, [1, 1, 1, 1500]> denom_127_cast_fp16 = rsqrt(epsilon = denom_127_epsilon_0, x = var_7342_cast_fp16)[name = tensor<string, []>("denom_127_cast_fp16")];
            tensor<fp16, [1, 1280, 1, 1500]> out_127_cast_fp16 = mul(x = zero_mean_127_cast_fp16, y = denom_127_cast_fp16)[name = tensor<string, []>("out_127_cast_fp16")];
            tensor<fp16, [1280]> input_631_gamma_0_to_fp16 = const()[name = tensor<string, []>("input_631_gamma_0_to_fp16"), val = tensor<fp16, [1280]>(BLOBFILE(path = tensor<string, []>("@model_path/weights/weight.bin"), offset = tensor<uint64, []>(346921152)))];
            tensor<fp16, [1280]> input_631_beta_0_to_fp16 = const()[name = tensor<string, []>("input_631_beta_0_to_fp16"), val = tensor<fp16, [1280]>(BLOBFILE(path = tensor<string, []>("@model_path/weights/weight.bin"), offset = tensor<uint64, []>(346923776)))];
            tensor<fp16, []> input_631_epsilon_0_to_fp16 = const()[name = tensor<string, []>("input_631_epsilon_0_to_fp16"), val = tensor<fp16, []>(0x1.5p-17)];
            tensor<fp16, [1, 1280, 1, 1500]> input_631_cast_fp16 = batch_norm(beta = input_631_beta_0_to_fp16, epsilon = input_631_epsilon_0_to_fp16, gamma = input_631_gamma_0_to_fp16, mean = obj_1_mean_0_to_fp16, variance = obj_1_variance_0_to_fp16, x = out_127_cast_fp16)[name = tensor<string, []>("input_631_cast_fp16")];
            tensor<int32, [2]> var_7356 = const()[name = tensor<string, []>("op_7356"), val = tensor<int32, [2]>([1, 1])];
            tensor<int32, [2]> var_7358 = const()[name = tensor<string, []>("op_7358"), val = tensor<int32, [2]>([1, 1])];
            tensor<string, []> pretrained_out_381_pad_type_0 = const()[name = tensor<string, []>("pretrained_out_381_pad_type_0"), val = tensor<string, []>("custom")];
            tensor<int32, [4]> pretrained_out_381_pad_0 = const()[name = tensor<string, []>("pretrained_out_381_pad_0"), val = tensor<int32, [4]>([0, 0, 0, 0])];
            tensor<fp16, [5120, 1280, 1, 1]> layers_31_fc1_pretrained_weight_to_fp16_palettized = constexpr_lut_to_dense()[indices = tensor<uint8, [3276800]>(BLOBFILE(path = tensor<string, []>("@model_path/weights/weight.bin"), offset = tensor<uint64, []>(346926400))), lut = tensor<fp16, [16]>(BLOBFILE(path = tensor<string, []>("@model_path/weights/weight.bin"), offset = tensor<uint64, []>(350203264))), name = tensor<string, []>("layers_31_fc1_pretrained_weight_to_fp16_palettized"), shape = tensor<uint32, [4]>([5120, 1280, 1, 1])];
            tensor<fp16, [5120]> layers_31_fc1_pretrained_bias_to_fp16 = const()[name = tensor<string, []>("layers_31_fc1_pretrained_bias_to_fp16"), val = tensor<fp16, [5120]>(BLOBFILE(path = tensor<string, []>("@model_path/weights/weight.bin"), offset = tensor<uint64, []>(350203392)))];
            tensor<fp16, [1, 5120, 1, 1500]> pretrained_out_381_cast_fp16 = conv(bias = layers_31_fc1_pretrained_bias_to_fp16, dilations = var_7358, groups = var_7186, pad = pretrained_out_381_pad_0, pad_type = pretrained_out_381_pad_type_0, strides = var_7356, weight = layers_31_fc1_pretrained_weight_to_fp16_palettized, x = input_631_cast_fp16)[name = tensor<string, []>("pretrained_out_381_cast_fp16")];
            tensor<int32, [2]> var_7362 = const()[name = tensor<string, []>("op_7362"), val = tensor<int32, [2]>([1, 1])];
            tensor<int32, [2]> var_7364 = const()[name = tensor<string, []>("op_7364"), val = tensor<int32, [2]>([1, 1])];
            tensor<string, []> input_633_pad_type_0 = const()[name = tensor<string, []>("input_633_pad_type_0"), val = tensor<string, []>("custom")];
            tensor<int32, [4]> input_633_pad_0 = const()[name = tensor<string, []>("input_633_pad_0"), val = tensor<int32, [4]>([0, 0, 0, 0])];
            tensor<fp16, [16, 1280, 1, 1]> layers_31_fc1_loraA_weight_to_fp16 = const()[name = tensor<string, []>("layers_31_fc1_loraA_weight_to_fp16"), val = tensor<fp16, [16, 1280, 1, 1]>(BLOBFILE(path = tensor<string, []>("@model_path/weights/weight.bin"), offset = tensor<uint64, []>(350213696)))];
            tensor<fp16, [1, 16, 1, 1500]> input_633_cast_fp16 = conv(dilations = var_7364, groups = var_7186, pad = input_633_pad_0, pad_type = input_633_pad_type_0, strides = var_7362, weight = layers_31_fc1_loraA_weight_to_fp16, x = input_631_cast_fp16)[name = tensor<string, []>("input_633_cast_fp16")];
            tensor<int32, [2]> var_7368 = const()[name = tensor<string, []>("op_7368"), val = tensor<int32, [2]>([1, 1])];
            tensor<int32, [2]> var_7370 = const()[name = tensor<string, []>("op_7370"), val = tensor<int32, [2]>([1, 1])];
            tensor<string, []> lora_out_761_pad_type_0 = const()[name = tensor<string, []>("lora_out_761_pad_type_0"), val = tensor<string, []>("custom")];
            tensor<int32, [4]> lora_out_761_pad_0 = const()[name = tensor<string, []>("lora_out_761_pad_0"), val = tensor<int32, [4]>([0, 0, 0, 0])];
            tensor<fp16, [5120, 16, 1, 1]> lora_out_763_weight_0_to_fp16 = const()[name = tensor<string, []>("lora_out_763_weight_0_to_fp16"), val = tensor<fp16, [5120, 16, 1, 1]>(BLOBFILE(path = tensor<string, []>("@model_path/weights/weight.bin"), offset = tensor<uint64, []>(350254720)))];
            tensor<fp16, [1, 5120, 1, 1500]> lora_out_763_cast_fp16 = conv(bias = lora_out_19_bias_0_to_fp16, dilations = var_7370, groups = var_7186, pad = lora_out_761_pad_0, pad_type = lora_out_761_pad_type_0, strides = var_7368, weight = lora_out_763_weight_0_to_fp16, x = input_633_cast_fp16)[name = tensor<string, []>("lora_out_763_cast_fp16")];
            tensor<fp16, [1, 5120, 1, 1500]> input_635_cast_fp16 = add(x = pretrained_out_381_cast_fp16, y = lora_out_763_cast_fp16)[name = tensor<string, []>("input_635_cast_fp16")];
            tensor<string, []> input_637_mode_0 = const()[name = tensor<string, []>("input_637_mode_0"), val = tensor<string, []>("EXACT")];
            tensor<fp16, [1, 5120, 1, 1500]> input_637_cast_fp16 = gelu(mode = input_637_mode_0, x = input_635_cast_fp16)[name = tensor<string, []>("input_637_cast_fp16")];
            tensor<int32, [2]> var_7382 = const()[name = tensor<string, []>("op_7382"), val = tensor<int32, [2]>([1, 1])];
            tensor<int32, [2]> var_7384 = const()[name = tensor<string, []>("op_7384"), val = tensor<int32, [2]>([1, 1])];
            tensor<string, []> pretrained_out_pad_type_0 = const()[name = tensor<string, []>("pretrained_out_pad_type_0"), val = tensor<string, []>("custom")];
            tensor<int32, [4]> pretrained_out_pad_0 = const()[name = tensor<string, []>("pretrained_out_pad_0"), val = tensor<int32, [4]>([0, 0, 0, 0])];
            tensor<fp16, [1280, 5120, 1, 1]> layers_31_fc2_pretrained_weight_to_fp16_palettized = constexpr_lut_to_dense()[indices = tensor<uint8, [3276800]>(BLOBFILE(path = tensor<string, []>("@model_path/weights/weight.bin"), offset = tensor<uint64, []>(350418624))), lut = tensor<fp16, [16]>(BLOBFILE(path = tensor<string, []>("@model_path/weights/weight.bin"), offset = tensor<uint64, []>(353695488))), name = tensor<string, []>("layers_31_fc2_pretrained_weight_to_fp16_palettized"), shape = tensor<uint32, [4]>([1280, 5120, 1, 1])];
            tensor<fp16, [1280]> layers_31_fc2_pretrained_bias_to_fp16 = const()[name = tensor<string, []>("layers_31_fc2_pretrained_bias_to_fp16"), val = tensor<fp16, [1280]>(BLOBFILE(path = tensor<string, []>("@model_path/weights/weight.bin"), offset = tensor<uint64, []>(353695616)))];
            tensor<fp16, [1, 1280, 1, 1500]> pretrained_out_cast_fp16 = conv(bias = layers_31_fc2_pretrained_bias_to_fp16, dilations = var_7384, groups = var_7186, pad = pretrained_out_pad_0, pad_type = pretrained_out_pad_type_0, strides = var_7382, weight = layers_31_fc2_pretrained_weight_to_fp16_palettized, x = input_637_cast_fp16)[name = tensor<string, []>("pretrained_out_cast_fp16")];
            tensor<int32, [2]> var_7388 = const()[name = tensor<string, []>("op_7388"), val = tensor<int32, [2]>([1, 1])];
            tensor<int32, [2]> var_7390 = const()[name = tensor<string, []>("op_7390"), val = tensor<int32, [2]>([1, 1])];
            tensor<string, []> input_pad_type_0 = const()[name = tensor<string, []>("input_pad_type_0"), val = tensor<string, []>("custom")];
            tensor<int32, [4]> input_pad_0 = const()[name = tensor<string, []>("input_pad_0"), val = tensor<int32, [4]>([0, 0, 0, 0])];
            tensor<fp16, [16, 5120, 1, 1]> layers_31_fc2_loraA_weight_to_fp16 = const()[name = tensor<string, []>("layers_31_fc2_loraA_weight_to_fp16"), val = tensor<fp16, [16, 5120, 1, 1]>(BLOBFILE(path = tensor<string, []>("@model_path/weights/weight.bin"), offset = tensor<uint64, []>(353698240)))];
            tensor<fp16, [1, 16, 1, 1500]> input_cast_fp16 = conv(dilations = var_7390, groups = var_7186, pad = input_pad_0, pad_type = input_pad_type_0, strides = var_7388, weight = layers_31_fc2_loraA_weight_to_fp16, x = input_637_cast_fp16)[name = tensor<string, []>("input_cast_fp16")];
            tensor<int32, [2]> var_7394 = const()[name = tensor<string, []>("op_7394"), val = tensor<int32, [2]>([1, 1])];
            tensor<int32, [2]> var_7396 = const()[name = tensor<string, []>("op_7396"), val = tensor<int32, [2]>([1, 1])];
            tensor<string, []> lora_out_765_pad_type_0 = const()[name = tensor<string, []>("lora_out_765_pad_type_0"), val = tensor<string, []>("custom")];
            tensor<int32, [4]> lora_out_765_pad_0 = const()[name = tensor<string, []>("lora_out_765_pad_0"), val = tensor<int32, [4]>([0, 0, 0, 0])];
            tensor<fp16, [1280, 16, 1, 1]> lora_out_weight_0_to_fp16 = const()[name = tensor<string, []>("lora_out_weight_0_to_fp16"), val = tensor<fp16, [1280, 16, 1, 1]>(BLOBFILE(path = tensor<string, []>("@model_path/weights/weight.bin"), offset = tensor<uint64, []>(353862144)))];
            tensor<fp16, [1, 1280, 1, 1500]> lora_out_cast_fp16 = conv(bias = obj_1_mean_0_to_fp16, dilations = var_7396, groups = var_7186, pad = lora_out_765_pad_0, pad_type = lora_out_765_pad_type_0, strides = var_7394, weight = lora_out_weight_0_to_fp16, x = input_cast_fp16)[name = tensor<string, []>("lora_out_cast_fp16")];
            tensor<fp16, [1, 1280, 1, 1500]> hidden_states_cast_fp16 = add(x = pretrained_out_cast_fp16, y = lora_out_cast_fp16)[name = tensor<string, []>("hidden_states_cast_fp16")];
            tensor<fp16, [1, 1280, 1, 1500]> inputs_cast_fp16 = add(x = inputs_127_cast_fp16, y = hidden_states_cast_fp16)[name = tensor<string, []>("inputs_cast_fp16")];
            tensor<bool, []> var_7405 = const()[name = tensor<string, []>("op_7405"), val = tensor<bool, []>(true)];
            tensor<int32, [1]> var_7409 = const()[name = tensor<string, []>("op_7409"), val = tensor<int32, [1]>([1])];
            tensor<fp16, [1, 1, 1, 1500]> channels_mean_cast_fp16 = reduce_mean(axes = var_7409, keep_dims = var_7405, x = inputs_cast_fp16)[name = tensor<string, []>("channels_mean_cast_fp16")];
            tensor<fp16, [1, 1280, 1, 1500]> zero_mean_cast_fp16 = sub(x = inputs_cast_fp16, y = channels_mean_cast_fp16)[name = tensor<string, []>("zero_mean_cast_fp16")];
            tensor<fp16, [1, 1280, 1, 1500]> zero_mean_sq_cast_fp16 = mul(x = zero_mean_cast_fp16, y = zero_mean_cast_fp16)[name = tensor<string, []>("zero_mean_sq_cast_fp16")];
            tensor<int32, [1]> var_7413 = const()[name = tensor<string, []>("op_7413"), val = tensor<int32, [1]>([1])];
            tensor<fp16, [1, 1, 1, 1500]> var_7414_cast_fp16 = reduce_mean(axes = var_7413, keep_dims = var_7405, x = zero_mean_sq_cast_fp16)[name = tensor<string, []>("op_7414_cast_fp16")];
            tensor<fp16, []> var_7415_to_fp16 = const()[name = tensor<string, []>("op_7415_to_fp16"), val = tensor<fp16, []>(0x1.5p-17)];
            tensor<fp16, [1, 1, 1, 1500]> var_7416_cast_fp16 = add(x = var_7414_cast_fp16, y = var_7415_to_fp16)[name = tensor<string, []>("op_7416_cast_fp16")];
            tensor<fp32, []> denom_epsilon_0 = const()[name = tensor<string, []>("denom_epsilon_0"), val = tensor<fp32, []>(0x1.197998p-40)];
            tensor<fp16, [1, 1, 1, 1500]> denom_cast_fp16 = rsqrt(epsilon = denom_epsilon_0, x = var_7416_cast_fp16)[name = tensor<string, []>("denom_cast_fp16")];
            tensor<fp16, [1, 1280, 1, 1500]> out_cast_fp16 = mul(x = zero_mean_cast_fp16, y = denom_cast_fp16)[name = tensor<string, []>("out_cast_fp16")];
            tensor<fp16, [1280]> encoder_output_embeds_type_fp32_gamma_0_to_fp16 = const()[name = tensor<string, []>("encoder_output_embeds_type_fp32_gamma_0_to_fp16"), val = tensor<fp16, [1280]>(BLOBFILE(path = tensor<string, []>("@model_path/weights/weight.bin"), offset = tensor<uint64, []>(353903168)))];
            tensor<fp16, [1280]> encoder_output_embeds_type_fp32_beta_0_to_fp16 = const()[name = tensor<string, []>("encoder_output_embeds_type_fp32_beta_0_to_fp16"), val = tensor<fp16, [1280]>(BLOBFILE(path = tensor<string, []>("@model_path/weights/weight.bin"), offset = tensor<uint64, []>(353905792)))];
            tensor<fp16, []> encoder_output_embeds_type_fp32_epsilon_0_to_fp16 = const()[name = tensor<string, []>("encoder_output_embeds_type_fp32_epsilon_0_to_fp16"), val = tensor<fp16, []>(0x1.5p-17)];
            tensor<fp16, [1, 1280, 1, 1500]> encoder_output_embeds = batch_norm(beta = encoder_output_embeds_type_fp32_beta_0_to_fp16, epsilon = encoder_output_embeds_type_fp32_epsilon_0_to_fp16, gamma = encoder_output_embeds_type_fp32_gamma_0_to_fp16, mean = obj_1_mean_0_to_fp16, variance = obj_1_variance_0_to_fp16, x = out_cast_fp16)[name = tensor<string, []>("encoder_output_embeds_type_fp32_cast_fp16")];
        } -> (encoder_output_embeds);
}